{"format": "layers-model", "generatedBy": "keras v2.4.0", "convertedBy": "TensorFlow.js Converter v2.7.0", "modelTopology": {"keras_version": "2.4.0", "backend": "tensorflow", "model_config": {"class_name": "Functional", "config": {"name": "wdsr", "layers": [{"class_name": "InputLayer", "config": {"batch_input_shape": [null, null, null, 3], "dtype": "float32", "sparse": false, "ragged": false, "name": "input_1"}, "name": "input_1", "inbound_nodes": []}, {"class_name": "Lambda", "config": {"name": "lambda", "trainable": true, "dtype": "float32", "function": ["4wIAAAAAAAAAAgAAAAIAAABDAAAAcwwAAAB8AHwBGABkARsAUwApAk5nAAAAAADgX0CpACkC2gF4\n2ghyZ2JfbWVhbnIBAAAAcgEAAAD6RUQ6L1Byb2plY3RzL1NreW5ldGl4L2FpL3ZpZGVvLWNvZGVj\nLXB5dGhvbi9jb252ZXJ0ZXJzL21vZGVsL2NvbW1vbi5wedoJbm9ybWFsaXplIwAAAHMCAAAAAAE=\n", [[114.44399999999999, 111.4605, 103.02000000000001]], null], "function_type": "lambda", "module": "converters.model.common", "output_shape": null, "output_shape_type": "raw", "output_shape_module": null, "arguments": {}}, "name": "lambda", "inbound_nodes": [[["input_1", 0, 0, {}]]]}, {"class_name": "Addons>WeightNormalization", "config": {"name": "weight_normalization", "trainable": true, "dtype": "float32", "layer": {"class_name": "Conv2D", "config": {"name": "conv2d", "trainable": true, "dtype": "float32", "filters": 32, "kernel_size": [3, 3], "strides": [1, 1], "padding": "same", "data_format": "channels_last", "dilation_rate": [1, 1], "groups": 1, "activation": "linear", "use_bias": true, "kernel_initializer": {"class_name": "GlorotUniform", "config": {"seed": null}}, "bias_initializer": {"class_name": "Zeros", "config": {}}, "kernel_regularizer": null, "bias_regularizer": null, "activity_regularizer": null, "kernel_constraint": null, "bias_constraint": null}}, "data_init": false}, "name": "weight_normalization", "inbound_nodes": [[["lambda", 0, 0, {}]]]}, {"class_name": "Addons>WeightNormalization", "config": {"name": "weight_normalization_1", "trainable": true, "dtype": "float32", "layer": {"class_name": "Conv2D", "config": {"name": "conv2d_1", "trainable": true, "dtype": "float32", "filters": 192, "kernel_size": [1, 1], "strides": [1, 1], "padding": "same", "data_format": "channels_last", "dilation_rate": [1, 1], "groups": 1, "activation": "relu", "use_bias": true, "kernel_initializer": {"class_name": "GlorotUniform", "config": {"seed": null}}, "bias_initializer": {"class_name": "Zeros", "config": {}}, "kernel_regularizer": null, "bias_regularizer": null, "activity_regularizer": null, "kernel_constraint": null, "bias_constraint": null}}, "data_init": false}, "name": "weight_normalization_1", "inbound_nodes": [[["weight_normalization", 0, 0, {}]]]}, {"class_name": "Addons>WeightNormalization", "config": {"name": "weight_normalization_2", "trainable": true, "dtype": "float32", "layer": {"class_name": "Conv2D", "config": {"name": "conv2d_2", "trainable": true, "dtype": "float32", "filters": 25, "kernel_size": [1, 1], "strides": [1, 1], "padding": "same", "data_format": "channels_last", "dilation_rate": [1, 1], "groups": 1, "activation": "linear", "use_bias": true, "kernel_initializer": {"class_name": "GlorotUniform", "config": {"seed": null}}, "bias_initializer": {"class_name": "Zeros", "config": {}}, "kernel_regularizer": null, "bias_regularizer": null, "activity_regularizer": null, "kernel_constraint": null, "bias_constraint": null}}, "data_init": false}, "name": "weight_normalization_2", "inbound_nodes": [[["weight_normalization_1", 0, 0, {}]]]}, {"class_name": "Addons>WeightNormalization", "config": {"name": "weight_normalization_3", "trainable": true, "dtype": "float32", "layer": {"class_name": "Conv2D", "config": {"name": "conv2d_3", "trainable": true, "dtype": "float32", "filters": 32, "kernel_size": [3, 3], "strides": [1, 1], "padding": "same", "data_format": "channels_last", "dilation_rate": [1, 1], "groups": 1, "activation": "linear", "use_bias": true, "kernel_initializer": {"class_name": "GlorotUniform", "config": {"seed": null}}, "bias_initializer": {"class_name": "Zeros", "config": {}}, "kernel_regularizer": null, "bias_regularizer": null, "activity_regularizer": null, "kernel_constraint": null, "bias_constraint": null}}, "data_init": false}, "name": "weight_normalization_3", "inbound_nodes": [[["weight_normalization_2", 0, 0, {}]]]}, {"class_name": "Add", "config": {"name": "add", "trainable": true, "dtype": "float32"}, "name": "add", "inbound_nodes": [[["weight_normalization", 0, 0, {}], ["weight_normalization_3", 0, 0, {}]]]}, {"class_name": "Addons>WeightNormalization", "config": {"name": "weight_normalization_4", "trainable": true, "dtype": "float32", "layer": {"class_name": "Conv2D", "config": {"name": "conv2d_4", "trainable": true, "dtype": "float32", "filters": 192, "kernel_size": [1, 1], "strides": [1, 1], "padding": "same", "data_format": "channels_last", "dilation_rate": [1, 1], "groups": 1, "activation": "relu", "use_bias": true, "kernel_initializer": {"class_name": "GlorotUniform", "config": {"seed": null}}, "bias_initializer": {"class_name": "Zeros", "config": {}}, "kernel_regularizer": null, "bias_regularizer": null, "activity_regularizer": null, "kernel_constraint": null, "bias_constraint": null}}, "data_init": false}, "name": "weight_normalization_4", "inbound_nodes": [[["add", 0, 0, {}]]]}, {"class_name": "Addons>WeightNormalization", "config": {"name": "weight_normalization_5", "trainable": true, "dtype": "float32", "layer": {"class_name": "Conv2D", "config": {"name": "conv2d_5", "trainable": true, "dtype": "float32", "filters": 25, "kernel_size": [1, 1], "strides": [1, 1], "padding": "same", "data_format": "channels_last", "dilation_rate": [1, 1], "groups": 1, "activation": "linear", "use_bias": true, "kernel_initializer": {"class_name": "GlorotUniform", "config": {"seed": null}}, "bias_initializer": {"class_name": "Zeros", "config": {}}, "kernel_regularizer": null, "bias_regularizer": null, "activity_regularizer": null, "kernel_constraint": null, "bias_constraint": null}}, "data_init": false}, "name": "weight_normalization_5", "inbound_nodes": [[["weight_normalization_4", 0, 0, {}]]]}, {"class_name": "Addons>WeightNormalization", "config": {"name": "weight_normalization_6", "trainable": true, "dtype": "float32", "layer": {"class_name": "Conv2D", "config": {"name": "conv2d_6", "trainable": true, "dtype": "float32", "filters": 32, "kernel_size": [3, 3], "strides": [1, 1], "padding": "same", "data_format": "channels_last", "dilation_rate": [1, 1], "groups": 1, "activation": "linear", "use_bias": true, "kernel_initializer": {"class_name": "GlorotUniform", "config": {"seed": null}}, "bias_initializer": {"class_name": "Zeros", "config": {}}, "kernel_regularizer": null, "bias_regularizer": null, "activity_regularizer": null, "kernel_constraint": null, "bias_constraint": null}}, "data_init": false}, "name": "weight_normalization_6", "inbound_nodes": [[["weight_normalization_5", 0, 0, {}]]]}, {"class_name": "Add", "config": {"name": "add_1", "trainable": true, "dtype": "float32"}, "name": "add_1", "inbound_nodes": [[["add", 0, 0, {}], ["weight_normalization_6", 0, 0, {}]]]}, {"class_name": "Addons>WeightNormalization", "config": {"name": "weight_normalization_7", "trainable": true, "dtype": "float32", "layer": {"class_name": "Conv2D", "config": {"name": "conv2d_7", "trainable": true, "dtype": "float32", "filters": 192, "kernel_size": [1, 1], "strides": [1, 1], "padding": "same", "data_format": "channels_last", "dilation_rate": [1, 1], "groups": 1, "activation": "relu", "use_bias": true, "kernel_initializer": {"class_name": "GlorotUniform", "config": {"seed": null}}, "bias_initializer": {"class_name": "Zeros", "config": {}}, "kernel_regularizer": null, "bias_regularizer": null, "activity_regularizer": null, "kernel_constraint": null, "bias_constraint": null}}, "data_init": false}, "name": "weight_normalization_7", "inbound_nodes": [[["add_1", 0, 0, {}]]]}, {"class_name": "Addons>WeightNormalization", "config": {"name": "weight_normalization_8", "trainable": true, "dtype": "float32", "layer": {"class_name": "Conv2D", "config": {"name": "conv2d_8", "trainable": true, "dtype": "float32", "filters": 25, "kernel_size": [1, 1], "strides": [1, 1], "padding": "same", "data_format": "channels_last", "dilation_rate": [1, 1], "groups": 1, "activation": "linear", "use_bias": true, "kernel_initializer": {"class_name": "GlorotUniform", "config": {"seed": null}}, "bias_initializer": {"class_name": "Zeros", "config": {}}, "kernel_regularizer": null, "bias_regularizer": null, "activity_regularizer": null, "kernel_constraint": null, "bias_constraint": null}}, "data_init": false}, "name": "weight_normalization_8", "inbound_nodes": [[["weight_normalization_7", 0, 0, {}]]]}, {"class_name": "Addons>WeightNormalization", "config": {"name": "weight_normalization_9", "trainable": true, "dtype": "float32", "layer": {"class_name": "Conv2D", "config": {"name": "conv2d_9", "trainable": true, "dtype": "float32", "filters": 32, "kernel_size": [3, 3], "strides": [1, 1], "padding": "same", "data_format": "channels_last", "dilation_rate": [1, 1], "groups": 1, "activation": "linear", "use_bias": true, "kernel_initializer": {"class_name": "GlorotUniform", "config": {"seed": null}}, "bias_initializer": {"class_name": "Zeros", "config": {}}, "kernel_regularizer": null, "bias_regularizer": null, "activity_regularizer": null, "kernel_constraint": null, "bias_constraint": null}}, "data_init": false}, "name": "weight_normalization_9", "inbound_nodes": [[["weight_normalization_8", 0, 0, {}]]]}, {"class_name": "Add", "config": {"name": "add_2", "trainable": true, "dtype": "float32"}, "name": "add_2", "inbound_nodes": [[["add_1", 0, 0, {}], ["weight_normalization_9", 0, 0, {}]]]}, {"class_name": "Addons>WeightNormalization", "config": {"name": "weight_normalization_10", "trainable": true, "dtype": "float32", "layer": {"class_name": "Conv2D", "config": {"name": "conv2d_10", "trainable": true, "dtype": "float32", "filters": 192, "kernel_size": [1, 1], "strides": [1, 1], "padding": "same", "data_format": "channels_last", "dilation_rate": [1, 1], "groups": 1, "activation": "relu", "use_bias": true, "kernel_initializer": {"class_name": "GlorotUniform", "config": {"seed": null}}, "bias_initializer": {"class_name": "Zeros", "config": {}}, "kernel_regularizer": null, "bias_regularizer": null, "activity_regularizer": null, "kernel_constraint": null, "bias_constraint": null}}, "data_init": false}, "name": "weight_normalization_10", "inbound_nodes": [[["add_2", 0, 0, {}]]]}, {"class_name": "Addons>WeightNormalization", "config": {"name": "weight_normalization_11", "trainable": true, "dtype": "float32", "layer": {"class_name": "Conv2D", "config": {"name": "conv2d_11", "trainable": true, "dtype": "float32", "filters": 25, "kernel_size": [1, 1], "strides": [1, 1], "padding": "same", "data_format": "channels_last", "dilation_rate": [1, 1], "groups": 1, "activation": "linear", "use_bias": true, "kernel_initializer": {"class_name": "GlorotUniform", "config": {"seed": null}}, "bias_initializer": {"class_name": "Zeros", "config": {}}, "kernel_regularizer": null, "bias_regularizer": null, "activity_regularizer": null, "kernel_constraint": null, "bias_constraint": null}}, "data_init": false}, "name": "weight_normalization_11", "inbound_nodes": [[["weight_normalization_10", 0, 0, {}]]]}, {"class_name": "Addons>WeightNormalization", "config": {"name": "weight_normalization_12", "trainable": true, "dtype": "float32", "layer": {"class_name": "Conv2D", "config": {"name": "conv2d_12", "trainable": true, "dtype": "float32", "filters": 32, "kernel_size": [3, 3], "strides": [1, 1], "padding": "same", "data_format": "channels_last", "dilation_rate": [1, 1], "groups": 1, "activation": "linear", "use_bias": true, "kernel_initializer": {"class_name": "GlorotUniform", "config": {"seed": null}}, "bias_initializer": {"class_name": "Zeros", "config": {}}, "kernel_regularizer": null, "bias_regularizer": null, "activity_regularizer": null, "kernel_constraint": null, "bias_constraint": null}}, "data_init": false}, "name": "weight_normalization_12", "inbound_nodes": [[["weight_normalization_11", 0, 0, {}]]]}, {"class_name": "Add", "config": {"name": "add_3", "trainable": true, "dtype": "float32"}, "name": "add_3", "inbound_nodes": [[["add_2", 0, 0, {}], ["weight_normalization_12", 0, 0, {}]]]}, {"class_name": "Addons>WeightNormalization", "config": {"name": "weight_normalization_13", "trainable": true, "dtype": "float32", "layer": {"class_name": "Conv2D", "config": {"name": "conv2d_13", "trainable": true, "dtype": "float32", "filters": 192, "kernel_size": [1, 1], "strides": [1, 1], "padding": "same", "data_format": "channels_last", "dilation_rate": [1, 1], "groups": 1, "activation": "relu", "use_bias": true, "kernel_initializer": {"class_name": "GlorotUniform", "config": {"seed": null}}, "bias_initializer": {"class_name": "Zeros", "config": {}}, "kernel_regularizer": null, "bias_regularizer": null, "activity_regularizer": null, "kernel_constraint": null, "bias_constraint": null}}, "data_init": false}, "name": "weight_normalization_13", "inbound_nodes": [[["add_3", 0, 0, {}]]]}, {"class_name": "Addons>WeightNormalization", "config": {"name": "weight_normalization_14", "trainable": true, "dtype": "float32", "layer": {"class_name": "Conv2D", "config": {"name": "conv2d_14", "trainable": true, "dtype": "float32", "filters": 25, "kernel_size": [1, 1], "strides": [1, 1], "padding": "same", "data_format": "channels_last", "dilation_rate": [1, 1], "groups": 1, "activation": "linear", "use_bias": true, "kernel_initializer": {"class_name": "GlorotUniform", "config": {"seed": null}}, "bias_initializer": {"class_name": "Zeros", "config": {}}, "kernel_regularizer": null, "bias_regularizer": null, "activity_regularizer": null, "kernel_constraint": null, "bias_constraint": null}}, "data_init": false}, "name": "weight_normalization_14", "inbound_nodes": [[["weight_normalization_13", 0, 0, {}]]]}, {"class_name": "Addons>WeightNormalization", "config": {"name": "weight_normalization_15", "trainable": true, "dtype": "float32", "layer": {"class_name": "Conv2D", "config": {"name": "conv2d_15", "trainable": true, "dtype": "float32", "filters": 32, "kernel_size": [3, 3], "strides": [1, 1], "padding": "same", "data_format": "channels_last", "dilation_rate": [1, 1], "groups": 1, "activation": "linear", "use_bias": true, "kernel_initializer": {"class_name": "GlorotUniform", "config": {"seed": null}}, "bias_initializer": {"class_name": "Zeros", "config": {}}, "kernel_regularizer": null, "bias_regularizer": null, "activity_regularizer": null, "kernel_constraint": null, "bias_constraint": null}}, "data_init": false}, "name": "weight_normalization_15", "inbound_nodes": [[["weight_normalization_14", 0, 0, {}]]]}, {"class_name": "Add", "config": {"name": "add_4", "trainable": true, "dtype": "float32"}, "name": "add_4", "inbound_nodes": [[["add_3", 0, 0, {}], ["weight_normalization_15", 0, 0, {}]]]}, {"class_name": "Addons>WeightNormalization", "config": {"name": "weight_normalization_16", "trainable": true, "dtype": "float32", "layer": {"class_name": "Conv2D", "config": {"name": "conv2d_16", "trainable": true, "dtype": "float32", "filters": 192, "kernel_size": [1, 1], "strides": [1, 1], "padding": "same", "data_format": "channels_last", "dilation_rate": [1, 1], "groups": 1, "activation": "relu", "use_bias": true, "kernel_initializer": {"class_name": "GlorotUniform", "config": {"seed": null}}, "bias_initializer": {"class_name": "Zeros", "config": {}}, "kernel_regularizer": null, "bias_regularizer": null, "activity_regularizer": null, "kernel_constraint": null, "bias_constraint": null}}, "data_init": false}, "name": "weight_normalization_16", "inbound_nodes": [[["add_4", 0, 0, {}]]]}, {"class_name": "Addons>WeightNormalization", "config": {"name": "weight_normalization_17", "trainable": true, "dtype": "float32", "layer": {"class_name": "Conv2D", "config": {"name": "conv2d_17", "trainable": true, "dtype": "float32", "filters": 25, "kernel_size": [1, 1], "strides": [1, 1], "padding": "same", "data_format": "channels_last", "dilation_rate": [1, 1], "groups": 1, "activation": "linear", "use_bias": true, "kernel_initializer": {"class_name": "GlorotUniform", "config": {"seed": null}}, "bias_initializer": {"class_name": "Zeros", "config": {}}, "kernel_regularizer": null, "bias_regularizer": null, "activity_regularizer": null, "kernel_constraint": null, "bias_constraint": null}}, "data_init": false}, "name": "weight_normalization_17", "inbound_nodes": [[["weight_normalization_16", 0, 0, {}]]]}, {"class_name": "Addons>WeightNormalization", "config": {"name": "weight_normalization_18", "trainable": true, "dtype": "float32", "layer": {"class_name": "Conv2D", "config": {"name": "conv2d_18", "trainable": true, "dtype": "float32", "filters": 32, "kernel_size": [3, 3], "strides": [1, 1], "padding": "same", "data_format": "channels_last", "dilation_rate": [1, 1], "groups": 1, "activation": "linear", "use_bias": true, "kernel_initializer": {"class_name": "GlorotUniform", "config": {"seed": null}}, "bias_initializer": {"class_name": "Zeros", "config": {}}, "kernel_regularizer": null, "bias_regularizer": null, "activity_regularizer": null, "kernel_constraint": null, "bias_constraint": null}}, "data_init": false}, "name": "weight_normalization_18", "inbound_nodes": [[["weight_normalization_17", 0, 0, {}]]]}, {"class_name": "Add", "config": {"name": "add_5", "trainable": true, "dtype": "float32"}, "name": "add_5", "inbound_nodes": [[["add_4", 0, 0, {}], ["weight_normalization_18", 0, 0, {}]]]}, {"class_name": "Addons>WeightNormalization", "config": {"name": "weight_normalization_19", "trainable": true, "dtype": "float32", "layer": {"class_name": "Conv2D", "config": {"name": "conv2d_19", "trainable": true, "dtype": "float32", "filters": 192, "kernel_size": [1, 1], "strides": [1, 1], "padding": "same", "data_format": "channels_last", "dilation_rate": [1, 1], "groups": 1, "activation": "relu", "use_bias": true, "kernel_initializer": {"class_name": "GlorotUniform", "config": {"seed": null}}, "bias_initializer": {"class_name": "Zeros", "config": {}}, "kernel_regularizer": null, "bias_regularizer": null, "activity_regularizer": null, "kernel_constraint": null, "bias_constraint": null}}, "data_init": false}, "name": "weight_normalization_19", "inbound_nodes": [[["add_5", 0, 0, {}]]]}, {"class_name": "Addons>WeightNormalization", "config": {"name": "weight_normalization_20", "trainable": true, "dtype": "float32", "layer": {"class_name": "Conv2D", "config": {"name": "conv2d_20", "trainable": true, "dtype": "float32", "filters": 25, "kernel_size": [1, 1], "strides": [1, 1], "padding": "same", "data_format": "channels_last", "dilation_rate": [1, 1], "groups": 1, "activation": "linear", "use_bias": true, "kernel_initializer": {"class_name": "GlorotUniform", "config": {"seed": null}}, "bias_initializer": {"class_name": "Zeros", "config": {}}, "kernel_regularizer": null, "bias_regularizer": null, "activity_regularizer": null, "kernel_constraint": null, "bias_constraint": null}}, "data_init": false}, "name": "weight_normalization_20", "inbound_nodes": [[["weight_normalization_19", 0, 0, {}]]]}, {"class_name": "Addons>WeightNormalization", "config": {"name": "weight_normalization_21", "trainable": true, "dtype": "float32", "layer": {"class_name": "Conv2D", "config": {"name": "conv2d_21", "trainable": true, "dtype": "float32", "filters": 32, "kernel_size": [3, 3], "strides": [1, 1], "padding": "same", "data_format": "channels_last", "dilation_rate": [1, 1], "groups": 1, "activation": "linear", "use_bias": true, "kernel_initializer": {"class_name": "GlorotUniform", "config": {"seed": null}}, "bias_initializer": {"class_name": "Zeros", "config": {}}, "kernel_regularizer": null, "bias_regularizer": null, "activity_regularizer": null, "kernel_constraint": null, "bias_constraint": null}}, "data_init": false}, "name": "weight_normalization_21", "inbound_nodes": [[["weight_normalization_20", 0, 0, {}]]]}, {"class_name": "Add", "config": {"name": "add_6", "trainable": true, "dtype": "float32"}, "name": "add_6", "inbound_nodes": [[["add_5", 0, 0, {}], ["weight_normalization_21", 0, 0, {}]]]}, {"class_name": "Addons>WeightNormalization", "config": {"name": "weight_normalization_22", "trainable": true, "dtype": "float32", "layer": {"class_name": "Conv2D", "config": {"name": "conv2d_22", "trainable": true, "dtype": "float32", "filters": 192, "kernel_size": [1, 1], "strides": [1, 1], "padding": "same", "data_format": "channels_last", "dilation_rate": [1, 1], "groups": 1, "activation": "relu", "use_bias": true, "kernel_initializer": {"class_name": "GlorotUniform", "config": {"seed": null}}, "bias_initializer": {"class_name": "Zeros", "config": {}}, "kernel_regularizer": null, "bias_regularizer": null, "activity_regularizer": null, "kernel_constraint": null, "bias_constraint": null}}, "data_init": false}, "name": "weight_normalization_22", "inbound_nodes": [[["add_6", 0, 0, {}]]]}, {"class_name": "Addons>WeightNormalization", "config": {"name": "weight_normalization_23", "trainable": true, "dtype": "float32", "layer": {"class_name": "Conv2D", "config": {"name": "conv2d_23", "trainable": true, "dtype": "float32", "filters": 25, "kernel_size": [1, 1], "strides": [1, 1], "padding": "same", "data_format": "channels_last", "dilation_rate": [1, 1], "groups": 1, "activation": "linear", "use_bias": true, "kernel_initializer": {"class_name": "GlorotUniform", "config": {"seed": null}}, "bias_initializer": {"class_name": "Zeros", "config": {}}, "kernel_regularizer": null, "bias_regularizer": null, "activity_regularizer": null, "kernel_constraint": null, "bias_constraint": null}}, "data_init": false}, "name": "weight_normalization_23", "inbound_nodes": [[["weight_normalization_22", 0, 0, {}]]]}, {"class_name": "Addons>WeightNormalization", "config": {"name": "weight_normalization_24", "trainable": true, "dtype": "float32", "layer": {"class_name": "Conv2D", "config": {"name": "conv2d_24", "trainable": true, "dtype": "float32", "filters": 32, "kernel_size": [3, 3], "strides": [1, 1], "padding": "same", "data_format": "channels_last", "dilation_rate": [1, 1], "groups": 1, "activation": "linear", "use_bias": true, "kernel_initializer": {"class_name": "GlorotUniform", "config": {"seed": null}}, "bias_initializer": {"class_name": "Zeros", "config": {}}, "kernel_regularizer": null, "bias_regularizer": null, "activity_regularizer": null, "kernel_constraint": null, "bias_constraint": null}}, "data_init": false}, "name": "weight_normalization_24", "inbound_nodes": [[["weight_normalization_23", 0, 0, {}]]]}, {"class_name": "Add", "config": {"name": "add_7", "trainable": true, "dtype": "float32"}, "name": "add_7", "inbound_nodes": [[["add_6", 0, 0, {}], ["weight_normalization_24", 0, 0, {}]]]}, {"class_name": "Addons>WeightNormalization", "config": {"name": "weight_normalization_25", "trainable": true, "dtype": "float32", "layer": {"class_name": "Conv2D", "config": {"name": "conv2d_25", "trainable": true, "dtype": "float32", "filters": 192, "kernel_size": [1, 1], "strides": [1, 1], "padding": "same", "data_format": "channels_last", "dilation_rate": [1, 1], "groups": 1, "activation": "relu", "use_bias": true, "kernel_initializer": {"class_name": "GlorotUniform", "config": {"seed": null}}, "bias_initializer": {"class_name": "Zeros", "config": {}}, "kernel_regularizer": null, "bias_regularizer": null, "activity_regularizer": null, "kernel_constraint": null, "bias_constraint": null}}, "data_init": false}, "name": "weight_normalization_25", "inbound_nodes": [[["add_7", 0, 0, {}]]]}, {"class_name": "Addons>WeightNormalization", "config": {"name": "weight_normalization_26", "trainable": true, "dtype": "float32", "layer": {"class_name": "Conv2D", "config": {"name": "conv2d_26", "trainable": true, "dtype": "float32", "filters": 25, "kernel_size": [1, 1], "strides": [1, 1], "padding": "same", "data_format": "channels_last", "dilation_rate": [1, 1], "groups": 1, "activation": "linear", "use_bias": true, "kernel_initializer": {"class_name": "GlorotUniform", "config": {"seed": null}}, "bias_initializer": {"class_name": "Zeros", "config": {}}, "kernel_regularizer": null, "bias_regularizer": null, "activity_regularizer": null, "kernel_constraint": null, "bias_constraint": null}}, "data_init": false}, "name": "weight_normalization_26", "inbound_nodes": [[["weight_normalization_25", 0, 0, {}]]]}, {"class_name": "Addons>WeightNormalization", "config": {"name": "weight_normalization_27", "trainable": true, "dtype": "float32", "layer": {"class_name": "Conv2D", "config": {"name": "conv2d_27", "trainable": true, "dtype": "float32", "filters": 32, "kernel_size": [3, 3], "strides": [1, 1], "padding": "same", "data_format": "channels_last", "dilation_rate": [1, 1], "groups": 1, "activation": "linear", "use_bias": true, "kernel_initializer": {"class_name": "GlorotUniform", "config": {"seed": null}}, "bias_initializer": {"class_name": "Zeros", "config": {}}, "kernel_regularizer": null, "bias_regularizer": null, "activity_regularizer": null, "kernel_constraint": null, "bias_constraint": null}}, "data_init": false}, "name": "weight_normalization_27", "inbound_nodes": [[["weight_normalization_26", 0, 0, {}]]]}, {"class_name": "Add", "config": {"name": "add_8", "trainable": true, "dtype": "float32"}, "name": "add_8", "inbound_nodes": [[["add_7", 0, 0, {}], ["weight_normalization_27", 0, 0, {}]]]}, {"class_name": "Addons>WeightNormalization", "config": {"name": "weight_normalization_28", "trainable": true, "dtype": "float32", "layer": {"class_name": "Conv2D", "config": {"name": "conv2d_28", "trainable": true, "dtype": "float32", "filters": 192, "kernel_size": [1, 1], "strides": [1, 1], "padding": "same", "data_format": "channels_last", "dilation_rate": [1, 1], "groups": 1, "activation": "relu", "use_bias": true, "kernel_initializer": {"class_name": "GlorotUniform", "config": {"seed": null}}, "bias_initializer": {"class_name": "Zeros", "config": {}}, "kernel_regularizer": null, "bias_regularizer": null, "activity_regularizer": null, "kernel_constraint": null, "bias_constraint": null}}, "data_init": false}, "name": "weight_normalization_28", "inbound_nodes": [[["add_8", 0, 0, {}]]]}, {"class_name": "Addons>WeightNormalization", "config": {"name": "weight_normalization_29", "trainable": true, "dtype": "float32", "layer": {"class_name": "Conv2D", "config": {"name": "conv2d_29", "trainable": true, "dtype": "float32", "filters": 25, "kernel_size": [1, 1], "strides": [1, 1], "padding": "same", "data_format": "channels_last", "dilation_rate": [1, 1], "groups": 1, "activation": "linear", "use_bias": true, "kernel_initializer": {"class_name": "GlorotUniform", "config": {"seed": null}}, "bias_initializer": {"class_name": "Zeros", "config": {}}, "kernel_regularizer": null, "bias_regularizer": null, "activity_regularizer": null, "kernel_constraint": null, "bias_constraint": null}}, "data_init": false}, "name": "weight_normalization_29", "inbound_nodes": [[["weight_normalization_28", 0, 0, {}]]]}, {"class_name": "Addons>WeightNormalization", "config": {"name": "weight_normalization_30", "trainable": true, "dtype": "float32", "layer": {"class_name": "Conv2D", "config": {"name": "conv2d_30", "trainable": true, "dtype": "float32", "filters": 32, "kernel_size": [3, 3], "strides": [1, 1], "padding": "same", "data_format": "channels_last", "dilation_rate": [1, 1], "groups": 1, "activation": "linear", "use_bias": true, "kernel_initializer": {"class_name": "GlorotUniform", "config": {"seed": null}}, "bias_initializer": {"class_name": "Zeros", "config": {}}, "kernel_regularizer": null, "bias_regularizer": null, "activity_regularizer": null, "kernel_constraint": null, "bias_constraint": null}}, "data_init": false}, "name": "weight_normalization_30", "inbound_nodes": [[["weight_normalization_29", 0, 0, {}]]]}, {"class_name": "Add", "config": {"name": "add_9", "trainable": true, "dtype": "float32"}, "name": "add_9", "inbound_nodes": [[["add_8", 0, 0, {}], ["weight_normalization_30", 0, 0, {}]]]}, {"class_name": "Addons>WeightNormalization", "config": {"name": "weight_normalization_31", "trainable": true, "dtype": "float32", "layer": {"class_name": "Conv2D", "config": {"name": "conv2d_31", "trainable": true, "dtype": "float32", "filters": 192, "kernel_size": [1, 1], "strides": [1, 1], "padding": "same", "data_format": "channels_last", "dilation_rate": [1, 1], "groups": 1, "activation": "relu", "use_bias": true, "kernel_initializer": {"class_name": "GlorotUniform", "config": {"seed": null}}, "bias_initializer": {"class_name": "Zeros", "config": {}}, "kernel_regularizer": null, "bias_regularizer": null, "activity_regularizer": null, "kernel_constraint": null, "bias_constraint": null}}, "data_init": false}, "name": "weight_normalization_31", "inbound_nodes": [[["add_9", 0, 0, {}]]]}, {"class_name": "Addons>WeightNormalization", "config": {"name": "weight_normalization_32", "trainable": true, "dtype": "float32", "layer": {"class_name": "Conv2D", "config": {"name": "conv2d_32", "trainable": true, "dtype": "float32", "filters": 25, "kernel_size": [1, 1], "strides": [1, 1], "padding": "same", "data_format": "channels_last", "dilation_rate": [1, 1], "groups": 1, "activation": "linear", "use_bias": true, "kernel_initializer": {"class_name": "GlorotUniform", "config": {"seed": null}}, "bias_initializer": {"class_name": "Zeros", "config": {}}, "kernel_regularizer": null, "bias_regularizer": null, "activity_regularizer": null, "kernel_constraint": null, "bias_constraint": null}}, "data_init": false}, "name": "weight_normalization_32", "inbound_nodes": [[["weight_normalization_31", 0, 0, {}]]]}, {"class_name": "Addons>WeightNormalization", "config": {"name": "weight_normalization_33", "trainable": true, "dtype": "float32", "layer": {"class_name": "Conv2D", "config": {"name": "conv2d_33", "trainable": true, "dtype": "float32", "filters": 32, "kernel_size": [3, 3], "strides": [1, 1], "padding": "same", "data_format": "channels_last", "dilation_rate": [1, 1], "groups": 1, "activation": "linear", "use_bias": true, "kernel_initializer": {"class_name": "GlorotUniform", "config": {"seed": null}}, "bias_initializer": {"class_name": "Zeros", "config": {}}, "kernel_regularizer": null, "bias_regularizer": null, "activity_regularizer": null, "kernel_constraint": null, "bias_constraint": null}}, "data_init": false}, "name": "weight_normalization_33", "inbound_nodes": [[["weight_normalization_32", 0, 0, {}]]]}, {"class_name": "Add", "config": {"name": "add_10", "trainable": true, "dtype": "float32"}, "name": "add_10", "inbound_nodes": [[["add_9", 0, 0, {}], ["weight_normalization_33", 0, 0, {}]]]}, {"class_name": "Addons>WeightNormalization", "config": {"name": "weight_normalization_34", "trainable": true, "dtype": "float32", "layer": {"class_name": "Conv2D", "config": {"name": "conv2d_34", "trainable": true, "dtype": "float32", "filters": 192, "kernel_size": [1, 1], "strides": [1, 1], "padding": "same", "data_format": "channels_last", "dilation_rate": [1, 1], "groups": 1, "activation": "relu", "use_bias": true, "kernel_initializer": {"class_name": "GlorotUniform", "config": {"seed": null}}, "bias_initializer": {"class_name": "Zeros", "config": {}}, "kernel_regularizer": null, "bias_regularizer": null, "activity_regularizer": null, "kernel_constraint": null, "bias_constraint": null}}, "data_init": false}, "name": "weight_normalization_34", "inbound_nodes": [[["add_10", 0, 0, {}]]]}, {"class_name": "Addons>WeightNormalization", "config": {"name": "weight_normalization_35", "trainable": true, "dtype": "float32", "layer": {"class_name": "Conv2D", "config": {"name": "conv2d_35", "trainable": true, "dtype": "float32", "filters": 25, "kernel_size": [1, 1], "strides": [1, 1], "padding": "same", "data_format": "channels_last", "dilation_rate": [1, 1], "groups": 1, "activation": "linear", "use_bias": true, "kernel_initializer": {"class_name": "GlorotUniform", "config": {"seed": null}}, "bias_initializer": {"class_name": "Zeros", "config": {}}, "kernel_regularizer": null, "bias_regularizer": null, "activity_regularizer": null, "kernel_constraint": null, "bias_constraint": null}}, "data_init": false}, "name": "weight_normalization_35", "inbound_nodes": [[["weight_normalization_34", 0, 0, {}]]]}, {"class_name": "Addons>WeightNormalization", "config": {"name": "weight_normalization_36", "trainable": true, "dtype": "float32", "layer": {"class_name": "Conv2D", "config": {"name": "conv2d_36", "trainable": true, "dtype": "float32", "filters": 32, "kernel_size": [3, 3], "strides": [1, 1], "padding": "same", "data_format": "channels_last", "dilation_rate": [1, 1], "groups": 1, "activation": "linear", "use_bias": true, "kernel_initializer": {"class_name": "GlorotUniform", "config": {"seed": null}}, "bias_initializer": {"class_name": "Zeros", "config": {}}, "kernel_regularizer": null, "bias_regularizer": null, "activity_regularizer": null, "kernel_constraint": null, "bias_constraint": null}}, "data_init": false}, "name": "weight_normalization_36", "inbound_nodes": [[["weight_normalization_35", 0, 0, {}]]]}, {"class_name": "Add", "config": {"name": "add_11", "trainable": true, "dtype": "float32"}, "name": "add_11", "inbound_nodes": [[["add_10", 0, 0, {}], ["weight_normalization_36", 0, 0, {}]]]}, {"class_name": "Addons>WeightNormalization", "config": {"name": "weight_normalization_37", "trainable": true, "dtype": "float32", "layer": {"class_name": "Conv2D", "config": {"name": "conv2d_37", "trainable": true, "dtype": "float32", "filters": 192, "kernel_size": [1, 1], "strides": [1, 1], "padding": "same", "data_format": "channels_last", "dilation_rate": [1, 1], "groups": 1, "activation": "relu", "use_bias": true, "kernel_initializer": {"class_name": "GlorotUniform", "config": {"seed": null}}, "bias_initializer": {"class_name": "Zeros", "config": {}}, "kernel_regularizer": null, "bias_regularizer": null, "activity_regularizer": null, "kernel_constraint": null, "bias_constraint": null}}, "data_init": false}, "name": "weight_normalization_37", "inbound_nodes": [[["add_11", 0, 0, {}]]]}, {"class_name": "Addons>WeightNormalization", "config": {"name": "weight_normalization_38", "trainable": true, "dtype": "float32", "layer": {"class_name": "Conv2D", "config": {"name": "conv2d_38", "trainable": true, "dtype": "float32", "filters": 25, "kernel_size": [1, 1], "strides": [1, 1], "padding": "same", "data_format": "channels_last", "dilation_rate": [1, 1], "groups": 1, "activation": "linear", "use_bias": true, "kernel_initializer": {"class_name": "GlorotUniform", "config": {"seed": null}}, "bias_initializer": {"class_name": "Zeros", "config": {}}, "kernel_regularizer": null, "bias_regularizer": null, "activity_regularizer": null, "kernel_constraint": null, "bias_constraint": null}}, "data_init": false}, "name": "weight_normalization_38", "inbound_nodes": [[["weight_normalization_37", 0, 0, {}]]]}, {"class_name": "Addons>WeightNormalization", "config": {"name": "weight_normalization_39", "trainable": true, "dtype": "float32", "layer": {"class_name": "Conv2D", "config": {"name": "conv2d_39", "trainable": true, "dtype": "float32", "filters": 32, "kernel_size": [3, 3], "strides": [1, 1], "padding": "same", "data_format": "channels_last", "dilation_rate": [1, 1], "groups": 1, "activation": "linear", "use_bias": true, "kernel_initializer": {"class_name": "GlorotUniform", "config": {"seed": null}}, "bias_initializer": {"class_name": "Zeros", "config": {}}, "kernel_regularizer": null, "bias_regularizer": null, "activity_regularizer": null, "kernel_constraint": null, "bias_constraint": null}}, "data_init": false}, "name": "weight_normalization_39", "inbound_nodes": [[["weight_normalization_38", 0, 0, {}]]]}, {"class_name": "Add", "config": {"name": "add_12", "trainable": true, "dtype": "float32"}, "name": "add_12", "inbound_nodes": [[["add_11", 0, 0, {}], ["weight_normalization_39", 0, 0, {}]]]}, {"class_name": "Addons>WeightNormalization", "config": {"name": "weight_normalization_40", "trainable": true, "dtype": "float32", "layer": {"class_name": "Conv2D", "config": {"name": "conv2d_40", "trainable": true, "dtype": "float32", "filters": 192, "kernel_size": [1, 1], "strides": [1, 1], "padding": "same", "data_format": "channels_last", "dilation_rate": [1, 1], "groups": 1, "activation": "relu", "use_bias": true, "kernel_initializer": {"class_name": "GlorotUniform", "config": {"seed": null}}, "bias_initializer": {"class_name": "Zeros", "config": {}}, "kernel_regularizer": null, "bias_regularizer": null, "activity_regularizer": null, "kernel_constraint": null, "bias_constraint": null}}, "data_init": false}, "name": "weight_normalization_40", "inbound_nodes": [[["add_12", 0, 0, {}]]]}, {"class_name": "Addons>WeightNormalization", "config": {"name": "weight_normalization_41", "trainable": true, "dtype": "float32", "layer": {"class_name": "Conv2D", "config": {"name": "conv2d_41", "trainable": true, "dtype": "float32", "filters": 25, "kernel_size": [1, 1], "strides": [1, 1], "padding": "same", "data_format": "channels_last", "dilation_rate": [1, 1], "groups": 1, "activation": "linear", "use_bias": true, "kernel_initializer": {"class_name": "GlorotUniform", "config": {"seed": null}}, "bias_initializer": {"class_name": "Zeros", "config": {}}, "kernel_regularizer": null, "bias_regularizer": null, "activity_regularizer": null, "kernel_constraint": null, "bias_constraint": null}}, "data_init": false}, "name": "weight_normalization_41", "inbound_nodes": [[["weight_normalization_40", 0, 0, {}]]]}, {"class_name": "Addons>WeightNormalization", "config": {"name": "weight_normalization_42", "trainable": true, "dtype": "float32", "layer": {"class_name": "Conv2D", "config": {"name": "conv2d_42", "trainable": true, "dtype": "float32", "filters": 32, "kernel_size": [3, 3], "strides": [1, 1], "padding": "same", "data_format": "channels_last", "dilation_rate": [1, 1], "groups": 1, "activation": "linear", "use_bias": true, "kernel_initializer": {"class_name": "GlorotUniform", "config": {"seed": null}}, "bias_initializer": {"class_name": "Zeros", "config": {}}, "kernel_regularizer": null, "bias_regularizer": null, "activity_regularizer": null, "kernel_constraint": null, "bias_constraint": null}}, "data_init": false}, "name": "weight_normalization_42", "inbound_nodes": [[["weight_normalization_41", 0, 0, {}]]]}, {"class_name": "Add", "config": {"name": "add_13", "trainable": true, "dtype": "float32"}, "name": "add_13", "inbound_nodes": [[["add_12", 0, 0, {}], ["weight_normalization_42", 0, 0, {}]]]}, {"class_name": "Addons>WeightNormalization", "config": {"name": "weight_normalization_43", "trainable": true, "dtype": "float32", "layer": {"class_name": "Conv2D", "config": {"name": "conv2d_43", "trainable": true, "dtype": "float32", "filters": 192, "kernel_size": [1, 1], "strides": [1, 1], "padding": "same", "data_format": "channels_last", "dilation_rate": [1, 1], "groups": 1, "activation": "relu", "use_bias": true, "kernel_initializer": {"class_name": "GlorotUniform", "config": {"seed": null}}, "bias_initializer": {"class_name": "Zeros", "config": {}}, "kernel_regularizer": null, "bias_regularizer": null, "activity_regularizer": null, "kernel_constraint": null, "bias_constraint": null}}, "data_init": false}, "name": "weight_normalization_43", "inbound_nodes": [[["add_13", 0, 0, {}]]]}, {"class_name": "Addons>WeightNormalization", "config": {"name": "weight_normalization_44", "trainable": true, "dtype": "float32", "layer": {"class_name": "Conv2D", "config": {"name": "conv2d_44", "trainable": true, "dtype": "float32", "filters": 25, "kernel_size": [1, 1], "strides": [1, 1], "padding": "same", "data_format": "channels_last", "dilation_rate": [1, 1], "groups": 1, "activation": "linear", "use_bias": true, "kernel_initializer": {"class_name": "GlorotUniform", "config": {"seed": null}}, "bias_initializer": {"class_name": "Zeros", "config": {}}, "kernel_regularizer": null, "bias_regularizer": null, "activity_regularizer": null, "kernel_constraint": null, "bias_constraint": null}}, "data_init": false}, "name": "weight_normalization_44", "inbound_nodes": [[["weight_normalization_43", 0, 0, {}]]]}, {"class_name": "Addons>WeightNormalization", "config": {"name": "weight_normalization_45", "trainable": true, "dtype": "float32", "layer": {"class_name": "Conv2D", "config": {"name": "conv2d_45", "trainable": true, "dtype": "float32", "filters": 32, "kernel_size": [3, 3], "strides": [1, 1], "padding": "same", "data_format": "channels_last", "dilation_rate": [1, 1], "groups": 1, "activation": "linear", "use_bias": true, "kernel_initializer": {"class_name": "GlorotUniform", "config": {"seed": null}}, "bias_initializer": {"class_name": "Zeros", "config": {}}, "kernel_regularizer": null, "bias_regularizer": null, "activity_regularizer": null, "kernel_constraint": null, "bias_constraint": null}}, "data_init": false}, "name": "weight_normalization_45", "inbound_nodes": [[["weight_normalization_44", 0, 0, {}]]]}, {"class_name": "Add", "config": {"name": "add_14", "trainable": true, "dtype": "float32"}, "name": "add_14", "inbound_nodes": [[["add_13", 0, 0, {}], ["weight_normalization_45", 0, 0, {}]]]}, {"class_name": "Addons>WeightNormalization", "config": {"name": "weight_normalization_46", "trainable": true, "dtype": "float32", "layer": {"class_name": "Conv2D", "config": {"name": "conv2d_46", "trainable": true, "dtype": "float32", "filters": 192, "kernel_size": [1, 1], "strides": [1, 1], "padding": "same", "data_format": "channels_last", "dilation_rate": [1, 1], "groups": 1, "activation": "relu", "use_bias": true, "kernel_initializer": {"class_name": "GlorotUniform", "config": {"seed": null}}, "bias_initializer": {"class_name": "Zeros", "config": {}}, "kernel_regularizer": null, "bias_regularizer": null, "activity_regularizer": null, "kernel_constraint": null, "bias_constraint": null}}, "data_init": false}, "name": "weight_normalization_46", "inbound_nodes": [[["add_14", 0, 0, {}]]]}, {"class_name": "Addons>WeightNormalization", "config": {"name": "weight_normalization_47", "trainable": true, "dtype": "float32", "layer": {"class_name": "Conv2D", "config": {"name": "conv2d_47", "trainable": true, "dtype": "float32", "filters": 25, "kernel_size": [1, 1], "strides": [1, 1], "padding": "same", "data_format": "channels_last", "dilation_rate": [1, 1], "groups": 1, "activation": "linear", "use_bias": true, "kernel_initializer": {"class_name": "GlorotUniform", "config": {"seed": null}}, "bias_initializer": {"class_name": "Zeros", "config": {}}, "kernel_regularizer": null, "bias_regularizer": null, "activity_regularizer": null, "kernel_constraint": null, "bias_constraint": null}}, "data_init": false}, "name": "weight_normalization_47", "inbound_nodes": [[["weight_normalization_46", 0, 0, {}]]]}, {"class_name": "Addons>WeightNormalization", "config": {"name": "weight_normalization_48", "trainable": true, "dtype": "float32", "layer": {"class_name": "Conv2D", "config": {"name": "conv2d_48", "trainable": true, "dtype": "float32", "filters": 32, "kernel_size": [3, 3], "strides": [1, 1], "padding": "same", "data_format": "channels_last", "dilation_rate": [1, 1], "groups": 1, "activation": "linear", "use_bias": true, "kernel_initializer": {"class_name": "GlorotUniform", "config": {"seed": null}}, "bias_initializer": {"class_name": "Zeros", "config": {}}, "kernel_regularizer": null, "bias_regularizer": null, "activity_regularizer": null, "kernel_constraint": null, "bias_constraint": null}}, "data_init": false}, "name": "weight_normalization_48", "inbound_nodes": [[["weight_normalization_47", 0, 0, {}]]]}, {"class_name": "Add", "config": {"name": "add_15", "trainable": true, "dtype": "float32"}, "name": "add_15", "inbound_nodes": [[["add_14", 0, 0, {}], ["weight_normalization_48", 0, 0, {}]]]}, {"class_name": "Addons>WeightNormalization", "config": {"name": "weight_normalization_49", "trainable": true, "dtype": "float32", "layer": {"class_name": "Conv2D", "config": {"name": "conv2d_49", "trainable": true, "dtype": "float32", "filters": 192, "kernel_size": [1, 1], "strides": [1, 1], "padding": "same", "data_format": "channels_last", "dilation_rate": [1, 1], "groups": 1, "activation": "relu", "use_bias": true, "kernel_initializer": {"class_name": "GlorotUniform", "config": {"seed": null}}, "bias_initializer": {"class_name": "Zeros", "config": {}}, "kernel_regularizer": null, "bias_regularizer": null, "activity_regularizer": null, "kernel_constraint": null, "bias_constraint": null}}, "data_init": false}, "name": "weight_normalization_49", "inbound_nodes": [[["add_15", 0, 0, {}]]]}, {"class_name": "Addons>WeightNormalization", "config": {"name": "weight_normalization_50", "trainable": true, "dtype": "float32", "layer": {"class_name": "Conv2D", "config": {"name": "conv2d_50", "trainable": true, "dtype": "float32", "filters": 25, "kernel_size": [1, 1], "strides": [1, 1], "padding": "same", "data_format": "channels_last", "dilation_rate": [1, 1], "groups": 1, "activation": "linear", "use_bias": true, "kernel_initializer": {"class_name": "GlorotUniform", "config": {"seed": null}}, "bias_initializer": {"class_name": "Zeros", "config": {}}, "kernel_regularizer": null, "bias_regularizer": null, "activity_regularizer": null, "kernel_constraint": null, "bias_constraint": null}}, "data_init": false}, "name": "weight_normalization_50", "inbound_nodes": [[["weight_normalization_49", 0, 0, {}]]]}, {"class_name": "Addons>WeightNormalization", "config": {"name": "weight_normalization_51", "trainable": true, "dtype": "float32", "layer": {"class_name": "Conv2D", "config": {"name": "conv2d_51", "trainable": true, "dtype": "float32", "filters": 32, "kernel_size": [3, 3], "strides": [1, 1], "padding": "same", "data_format": "channels_last", "dilation_rate": [1, 1], "groups": 1, "activation": "linear", "use_bias": true, "kernel_initializer": {"class_name": "GlorotUniform", "config": {"seed": null}}, "bias_initializer": {"class_name": "Zeros", "config": {}}, "kernel_regularizer": null, "bias_regularizer": null, "activity_regularizer": null, "kernel_constraint": null, "bias_constraint": null}}, "data_init": false}, "name": "weight_normalization_51", "inbound_nodes": [[["weight_normalization_50", 0, 0, {}]]]}, {"class_name": "Add", "config": {"name": "add_16", "trainable": true, "dtype": "float32"}, "name": "add_16", "inbound_nodes": [[["add_15", 0, 0, {}], ["weight_normalization_51", 0, 0, {}]]]}, {"class_name": "Addons>WeightNormalization", "config": {"name": "weight_normalization_52", "trainable": true, "dtype": "float32", "layer": {"class_name": "Conv2D", "config": {"name": "conv2d_52", "trainable": true, "dtype": "float32", "filters": 192, "kernel_size": [1, 1], "strides": [1, 1], "padding": "same", "data_format": "channels_last", "dilation_rate": [1, 1], "groups": 1, "activation": "relu", "use_bias": true, "kernel_initializer": {"class_name": "GlorotUniform", "config": {"seed": null}}, "bias_initializer": {"class_name": "Zeros", "config": {}}, "kernel_regularizer": null, "bias_regularizer": null, "activity_regularizer": null, "kernel_constraint": null, "bias_constraint": null}}, "data_init": false}, "name": "weight_normalization_52", "inbound_nodes": [[["add_16", 0, 0, {}]]]}, {"class_name": "Addons>WeightNormalization", "config": {"name": "weight_normalization_53", "trainable": true, "dtype": "float32", "layer": {"class_name": "Conv2D", "config": {"name": "conv2d_53", "trainable": true, "dtype": "float32", "filters": 25, "kernel_size": [1, 1], "strides": [1, 1], "padding": "same", "data_format": "channels_last", "dilation_rate": [1, 1], "groups": 1, "activation": "linear", "use_bias": true, "kernel_initializer": {"class_name": "GlorotUniform", "config": {"seed": null}}, "bias_initializer": {"class_name": "Zeros", "config": {}}, "kernel_regularizer": null, "bias_regularizer": null, "activity_regularizer": null, "kernel_constraint": null, "bias_constraint": null}}, "data_init": false}, "name": "weight_normalization_53", "inbound_nodes": [[["weight_normalization_52", 0, 0, {}]]]}, {"class_name": "Addons>WeightNormalization", "config": {"name": "weight_normalization_54", "trainable": true, "dtype": "float32", "layer": {"class_name": "Conv2D", "config": {"name": "conv2d_54", "trainable": true, "dtype": "float32", "filters": 32, "kernel_size": [3, 3], "strides": [1, 1], "padding": "same", "data_format": "channels_last", "dilation_rate": [1, 1], "groups": 1, "activation": "linear", "use_bias": true, "kernel_initializer": {"class_name": "GlorotUniform", "config": {"seed": null}}, "bias_initializer": {"class_name": "Zeros", "config": {}}, "kernel_regularizer": null, "bias_regularizer": null, "activity_regularizer": null, "kernel_constraint": null, "bias_constraint": null}}, "data_init": false}, "name": "weight_normalization_54", "inbound_nodes": [[["weight_normalization_53", 0, 0, {}]]]}, {"class_name": "Add", "config": {"name": "add_17", "trainable": true, "dtype": "float32"}, "name": "add_17", "inbound_nodes": [[["add_16", 0, 0, {}], ["weight_normalization_54", 0, 0, {}]]]}, {"class_name": "Addons>WeightNormalization", "config": {"name": "weight_normalization_55", "trainable": true, "dtype": "float32", "layer": {"class_name": "Conv2D", "config": {"name": "conv2d_55", "trainable": true, "dtype": "float32", "filters": 192, "kernel_size": [1, 1], "strides": [1, 1], "padding": "same", "data_format": "channels_last", "dilation_rate": [1, 1], "groups": 1, "activation": "relu", "use_bias": true, "kernel_initializer": {"class_name": "GlorotUniform", "config": {"seed": null}}, "bias_initializer": {"class_name": "Zeros", "config": {}}, "kernel_regularizer": null, "bias_regularizer": null, "activity_regularizer": null, "kernel_constraint": null, "bias_constraint": null}}, "data_init": false}, "name": "weight_normalization_55", "inbound_nodes": [[["add_17", 0, 0, {}]]]}, {"class_name": "Addons>WeightNormalization", "config": {"name": "weight_normalization_56", "trainable": true, "dtype": "float32", "layer": {"class_name": "Conv2D", "config": {"name": "conv2d_56", "trainable": true, "dtype": "float32", "filters": 25, "kernel_size": [1, 1], "strides": [1, 1], "padding": "same", "data_format": "channels_last", "dilation_rate": [1, 1], "groups": 1, "activation": "linear", "use_bias": true, "kernel_initializer": {"class_name": "GlorotUniform", "config": {"seed": null}}, "bias_initializer": {"class_name": "Zeros", "config": {}}, "kernel_regularizer": null, "bias_regularizer": null, "activity_regularizer": null, "kernel_constraint": null, "bias_constraint": null}}, "data_init": false}, "name": "weight_normalization_56", "inbound_nodes": [[["weight_normalization_55", 0, 0, {}]]]}, {"class_name": "Addons>WeightNormalization", "config": {"name": "weight_normalization_57", "trainable": true, "dtype": "float32", "layer": {"class_name": "Conv2D", "config": {"name": "conv2d_57", "trainable": true, "dtype": "float32", "filters": 32, "kernel_size": [3, 3], "strides": [1, 1], "padding": "same", "data_format": "channels_last", "dilation_rate": [1, 1], "groups": 1, "activation": "linear", "use_bias": true, "kernel_initializer": {"class_name": "GlorotUniform", "config": {"seed": null}}, "bias_initializer": {"class_name": "Zeros", "config": {}}, "kernel_regularizer": null, "bias_regularizer": null, "activity_regularizer": null, "kernel_constraint": null, "bias_constraint": null}}, "data_init": false}, "name": "weight_normalization_57", "inbound_nodes": [[["weight_normalization_56", 0, 0, {}]]]}, {"class_name": "Add", "config": {"name": "add_18", "trainable": true, "dtype": "float32"}, "name": "add_18", "inbound_nodes": [[["add_17", 0, 0, {}], ["weight_normalization_57", 0, 0, {}]]]}, {"class_name": "Addons>WeightNormalization", "config": {"name": "weight_normalization_58", "trainable": true, "dtype": "float32", "layer": {"class_name": "Conv2D", "config": {"name": "conv2d_58", "trainable": true, "dtype": "float32", "filters": 192, "kernel_size": [1, 1], "strides": [1, 1], "padding": "same", "data_format": "channels_last", "dilation_rate": [1, 1], "groups": 1, "activation": "relu", "use_bias": true, "kernel_initializer": {"class_name": "GlorotUniform", "config": {"seed": null}}, "bias_initializer": {"class_name": "Zeros", "config": {}}, "kernel_regularizer": null, "bias_regularizer": null, "activity_regularizer": null, "kernel_constraint": null, "bias_constraint": null}}, "data_init": false}, "name": "weight_normalization_58", "inbound_nodes": [[["add_18", 0, 0, {}]]]}, {"class_name": "Addons>WeightNormalization", "config": {"name": "weight_normalization_59", "trainable": true, "dtype": "float32", "layer": {"class_name": "Conv2D", "config": {"name": "conv2d_59", "trainable": true, "dtype": "float32", "filters": 25, "kernel_size": [1, 1], "strides": [1, 1], "padding": "same", "data_format": "channels_last", "dilation_rate": [1, 1], "groups": 1, "activation": "linear", "use_bias": true, "kernel_initializer": {"class_name": "GlorotUniform", "config": {"seed": null}}, "bias_initializer": {"class_name": "Zeros", "config": {}}, "kernel_regularizer": null, "bias_regularizer": null, "activity_regularizer": null, "kernel_constraint": null, "bias_constraint": null}}, "data_init": false}, "name": "weight_normalization_59", "inbound_nodes": [[["weight_normalization_58", 0, 0, {}]]]}, {"class_name": "Addons>WeightNormalization", "config": {"name": "weight_normalization_60", "trainable": true, "dtype": "float32", "layer": {"class_name": "Conv2D", "config": {"name": "conv2d_60", "trainable": true, "dtype": "float32", "filters": 32, "kernel_size": [3, 3], "strides": [1, 1], "padding": "same", "data_format": "channels_last", "dilation_rate": [1, 1], "groups": 1, "activation": "linear", "use_bias": true, "kernel_initializer": {"class_name": "GlorotUniform", "config": {"seed": null}}, "bias_initializer": {"class_name": "Zeros", "config": {}}, "kernel_regularizer": null, "bias_regularizer": null, "activity_regularizer": null, "kernel_constraint": null, "bias_constraint": null}}, "data_init": false}, "name": "weight_normalization_60", "inbound_nodes": [[["weight_normalization_59", 0, 0, {}]]]}, {"class_name": "Add", "config": {"name": "add_19", "trainable": true, "dtype": "float32"}, "name": "add_19", "inbound_nodes": [[["add_18", 0, 0, {}], ["weight_normalization_60", 0, 0, {}]]]}, {"class_name": "Addons>WeightNormalization", "config": {"name": "weight_normalization_61", "trainable": true, "dtype": "float32", "layer": {"class_name": "Conv2D", "config": {"name": "conv2d_61", "trainable": true, "dtype": "float32", "filters": 192, "kernel_size": [1, 1], "strides": [1, 1], "padding": "same", "data_format": "channels_last", "dilation_rate": [1, 1], "groups": 1, "activation": "relu", "use_bias": true, "kernel_initializer": {"class_name": "GlorotUniform", "config": {"seed": null}}, "bias_initializer": {"class_name": "Zeros", "config": {}}, "kernel_regularizer": null, "bias_regularizer": null, "activity_regularizer": null, "kernel_constraint": null, "bias_constraint": null}}, "data_init": false}, "name": "weight_normalization_61", "inbound_nodes": [[["add_19", 0, 0, {}]]]}, {"class_name": "Addons>WeightNormalization", "config": {"name": "weight_normalization_62", "trainable": true, "dtype": "float32", "layer": {"class_name": "Conv2D", "config": {"name": "conv2d_62", "trainable": true, "dtype": "float32", "filters": 25, "kernel_size": [1, 1], "strides": [1, 1], "padding": "same", "data_format": "channels_last", "dilation_rate": [1, 1], "groups": 1, "activation": "linear", "use_bias": true, "kernel_initializer": {"class_name": "GlorotUniform", "config": {"seed": null}}, "bias_initializer": {"class_name": "Zeros", "config": {}}, "kernel_regularizer": null, "bias_regularizer": null, "activity_regularizer": null, "kernel_constraint": null, "bias_constraint": null}}, "data_init": false}, "name": "weight_normalization_62", "inbound_nodes": [[["weight_normalization_61", 0, 0, {}]]]}, {"class_name": "Addons>WeightNormalization", "config": {"name": "weight_normalization_63", "trainable": true, "dtype": "float32", "layer": {"class_name": "Conv2D", "config": {"name": "conv2d_63", "trainable": true, "dtype": "float32", "filters": 32, "kernel_size": [3, 3], "strides": [1, 1], "padding": "same", "data_format": "channels_last", "dilation_rate": [1, 1], "groups": 1, "activation": "linear", "use_bias": true, "kernel_initializer": {"class_name": "GlorotUniform", "config": {"seed": null}}, "bias_initializer": {"class_name": "Zeros", "config": {}}, "kernel_regularizer": null, "bias_regularizer": null, "activity_regularizer": null, "kernel_constraint": null, "bias_constraint": null}}, "data_init": false}, "name": "weight_normalization_63", "inbound_nodes": [[["weight_normalization_62", 0, 0, {}]]]}, {"class_name": "Add", "config": {"name": "add_20", "trainable": true, "dtype": "float32"}, "name": "add_20", "inbound_nodes": [[["add_19", 0, 0, {}], ["weight_normalization_63", 0, 0, {}]]]}, {"class_name": "Addons>WeightNormalization", "config": {"name": "weight_normalization_64", "trainable": true, "dtype": "float32", "layer": {"class_name": "Conv2D", "config": {"name": "conv2d_64", "trainable": true, "dtype": "float32", "filters": 192, "kernel_size": [1, 1], "strides": [1, 1], "padding": "same", "data_format": "channels_last", "dilation_rate": [1, 1], "groups": 1, "activation": "relu", "use_bias": true, "kernel_initializer": {"class_name": "GlorotUniform", "config": {"seed": null}}, "bias_initializer": {"class_name": "Zeros", "config": {}}, "kernel_regularizer": null, "bias_regularizer": null, "activity_regularizer": null, "kernel_constraint": null, "bias_constraint": null}}, "data_init": false}, "name": "weight_normalization_64", "inbound_nodes": [[["add_20", 0, 0, {}]]]}, {"class_name": "Addons>WeightNormalization", "config": {"name": "weight_normalization_65", "trainable": true, "dtype": "float32", "layer": {"class_name": "Conv2D", "config": {"name": "conv2d_65", "trainable": true, "dtype": "float32", "filters": 25, "kernel_size": [1, 1], "strides": [1, 1], "padding": "same", "data_format": "channels_last", "dilation_rate": [1, 1], "groups": 1, "activation": "linear", "use_bias": true, "kernel_initializer": {"class_name": "GlorotUniform", "config": {"seed": null}}, "bias_initializer": {"class_name": "Zeros", "config": {}}, "kernel_regularizer": null, "bias_regularizer": null, "activity_regularizer": null, "kernel_constraint": null, "bias_constraint": null}}, "data_init": false}, "name": "weight_normalization_65", "inbound_nodes": [[["weight_normalization_64", 0, 0, {}]]]}, {"class_name": "Addons>WeightNormalization", "config": {"name": "weight_normalization_66", "trainable": true, "dtype": "float32", "layer": {"class_name": "Conv2D", "config": {"name": "conv2d_66", "trainable": true, "dtype": "float32", "filters": 32, "kernel_size": [3, 3], "strides": [1, 1], "padding": "same", "data_format": "channels_last", "dilation_rate": [1, 1], "groups": 1, "activation": "linear", "use_bias": true, "kernel_initializer": {"class_name": "GlorotUniform", "config": {"seed": null}}, "bias_initializer": {"class_name": "Zeros", "config": {}}, "kernel_regularizer": null, "bias_regularizer": null, "activity_regularizer": null, "kernel_constraint": null, "bias_constraint": null}}, "data_init": false}, "name": "weight_normalization_66", "inbound_nodes": [[["weight_normalization_65", 0, 0, {}]]]}, {"class_name": "Add", "config": {"name": "add_21", "trainable": true, "dtype": "float32"}, "name": "add_21", "inbound_nodes": [[["add_20", 0, 0, {}], ["weight_normalization_66", 0, 0, {}]]]}, {"class_name": "Addons>WeightNormalization", "config": {"name": "weight_normalization_67", "trainable": true, "dtype": "float32", "layer": {"class_name": "Conv2D", "config": {"name": "conv2d_67", "trainable": true, "dtype": "float32", "filters": 192, "kernel_size": [1, 1], "strides": [1, 1], "padding": "same", "data_format": "channels_last", "dilation_rate": [1, 1], "groups": 1, "activation": "relu", "use_bias": true, "kernel_initializer": {"class_name": "GlorotUniform", "config": {"seed": null}}, "bias_initializer": {"class_name": "Zeros", "config": {}}, "kernel_regularizer": null, "bias_regularizer": null, "activity_regularizer": null, "kernel_constraint": null, "bias_constraint": null}}, "data_init": false}, "name": "weight_normalization_67", "inbound_nodes": [[["add_21", 0, 0, {}]]]}, {"class_name": "Addons>WeightNormalization", "config": {"name": "weight_normalization_68", "trainable": true, "dtype": "float32", "layer": {"class_name": "Conv2D", "config": {"name": "conv2d_68", "trainable": true, "dtype": "float32", "filters": 25, "kernel_size": [1, 1], "strides": [1, 1], "padding": "same", "data_format": "channels_last", "dilation_rate": [1, 1], "groups": 1, "activation": "linear", "use_bias": true, "kernel_initializer": {"class_name": "GlorotUniform", "config": {"seed": null}}, "bias_initializer": {"class_name": "Zeros", "config": {}}, "kernel_regularizer": null, "bias_regularizer": null, "activity_regularizer": null, "kernel_constraint": null, "bias_constraint": null}}, "data_init": false}, "name": "weight_normalization_68", "inbound_nodes": [[["weight_normalization_67", 0, 0, {}]]]}, {"class_name": "Addons>WeightNormalization", "config": {"name": "weight_normalization_69", "trainable": true, "dtype": "float32", "layer": {"class_name": "Conv2D", "config": {"name": "conv2d_69", "trainable": true, "dtype": "float32", "filters": 32, "kernel_size": [3, 3], "strides": [1, 1], "padding": "same", "data_format": "channels_last", "dilation_rate": [1, 1], "groups": 1, "activation": "linear", "use_bias": true, "kernel_initializer": {"class_name": "GlorotUniform", "config": {"seed": null}}, "bias_initializer": {"class_name": "Zeros", "config": {}}, "kernel_regularizer": null, "bias_regularizer": null, "activity_regularizer": null, "kernel_constraint": null, "bias_constraint": null}}, "data_init": false}, "name": "weight_normalization_69", "inbound_nodes": [[["weight_normalization_68", 0, 0, {}]]]}, {"class_name": "Add", "config": {"name": "add_22", "trainable": true, "dtype": "float32"}, "name": "add_22", "inbound_nodes": [[["add_21", 0, 0, {}], ["weight_normalization_69", 0, 0, {}]]]}, {"class_name": "Addons>WeightNormalization", "config": {"name": "weight_normalization_70", "trainable": true, "dtype": "float32", "layer": {"class_name": "Conv2D", "config": {"name": "conv2d_70", "trainable": true, "dtype": "float32", "filters": 192, "kernel_size": [1, 1], "strides": [1, 1], "padding": "same", "data_format": "channels_last", "dilation_rate": [1, 1], "groups": 1, "activation": "relu", "use_bias": true, "kernel_initializer": {"class_name": "GlorotUniform", "config": {"seed": null}}, "bias_initializer": {"class_name": "Zeros", "config": {}}, "kernel_regularizer": null, "bias_regularizer": null, "activity_regularizer": null, "kernel_constraint": null, "bias_constraint": null}}, "data_init": false}, "name": "weight_normalization_70", "inbound_nodes": [[["add_22", 0, 0, {}]]]}, {"class_name": "Addons>WeightNormalization", "config": {"name": "weight_normalization_71", "trainable": true, "dtype": "float32", "layer": {"class_name": "Conv2D", "config": {"name": "conv2d_71", "trainable": true, "dtype": "float32", "filters": 25, "kernel_size": [1, 1], "strides": [1, 1], "padding": "same", "data_format": "channels_last", "dilation_rate": [1, 1], "groups": 1, "activation": "linear", "use_bias": true, "kernel_initializer": {"class_name": "GlorotUniform", "config": {"seed": null}}, "bias_initializer": {"class_name": "Zeros", "config": {}}, "kernel_regularizer": null, "bias_regularizer": null, "activity_regularizer": null, "kernel_constraint": null, "bias_constraint": null}}, "data_init": false}, "name": "weight_normalization_71", "inbound_nodes": [[["weight_normalization_70", 0, 0, {}]]]}, {"class_name": "Addons>WeightNormalization", "config": {"name": "weight_normalization_72", "trainable": true, "dtype": "float32", "layer": {"class_name": "Conv2D", "config": {"name": "conv2d_72", "trainable": true, "dtype": "float32", "filters": 32, "kernel_size": [3, 3], "strides": [1, 1], "padding": "same", "data_format": "channels_last", "dilation_rate": [1, 1], "groups": 1, "activation": "linear", "use_bias": true, "kernel_initializer": {"class_name": "GlorotUniform", "config": {"seed": null}}, "bias_initializer": {"class_name": "Zeros", "config": {}}, "kernel_regularizer": null, "bias_regularizer": null, "activity_regularizer": null, "kernel_constraint": null, "bias_constraint": null}}, "data_init": false}, "name": "weight_normalization_72", "inbound_nodes": [[["weight_normalization_71", 0, 0, {}]]]}, {"class_name": "Add", "config": {"name": "add_23", "trainable": true, "dtype": "float32"}, "name": "add_23", "inbound_nodes": [[["add_22", 0, 0, {}], ["weight_normalization_72", 0, 0, {}]]]}, {"class_name": "Addons>WeightNormalization", "config": {"name": "weight_normalization_73", "trainable": true, "dtype": "float32", "layer": {"class_name": "Conv2D", "config": {"name": "conv2d_73", "trainable": true, "dtype": "float32", "filters": 192, "kernel_size": [1, 1], "strides": [1, 1], "padding": "same", "data_format": "channels_last", "dilation_rate": [1, 1], "groups": 1, "activation": "relu", "use_bias": true, "kernel_initializer": {"class_name": "GlorotUniform", "config": {"seed": null}}, "bias_initializer": {"class_name": "Zeros", "config": {}}, "kernel_regularizer": null, "bias_regularizer": null, "activity_regularizer": null, "kernel_constraint": null, "bias_constraint": null}}, "data_init": false}, "name": "weight_normalization_73", "inbound_nodes": [[["add_23", 0, 0, {}]]]}, {"class_name": "Addons>WeightNormalization", "config": {"name": "weight_normalization_74", "trainable": true, "dtype": "float32", "layer": {"class_name": "Conv2D", "config": {"name": "conv2d_74", "trainable": true, "dtype": "float32", "filters": 25, "kernel_size": [1, 1], "strides": [1, 1], "padding": "same", "data_format": "channels_last", "dilation_rate": [1, 1], "groups": 1, "activation": "linear", "use_bias": true, "kernel_initializer": {"class_name": "GlorotUniform", "config": {"seed": null}}, "bias_initializer": {"class_name": "Zeros", "config": {}}, "kernel_regularizer": null, "bias_regularizer": null, "activity_regularizer": null, "kernel_constraint": null, "bias_constraint": null}}, "data_init": false}, "name": "weight_normalization_74", "inbound_nodes": [[["weight_normalization_73", 0, 0, {}]]]}, {"class_name": "Addons>WeightNormalization", "config": {"name": "weight_normalization_75", "trainable": true, "dtype": "float32", "layer": {"class_name": "Conv2D", "config": {"name": "conv2d_75", "trainable": true, "dtype": "float32", "filters": 32, "kernel_size": [3, 3], "strides": [1, 1], "padding": "same", "data_format": "channels_last", "dilation_rate": [1, 1], "groups": 1, "activation": "linear", "use_bias": true, "kernel_initializer": {"class_name": "GlorotUniform", "config": {"seed": null}}, "bias_initializer": {"class_name": "Zeros", "config": {}}, "kernel_regularizer": null, "bias_regularizer": null, "activity_regularizer": null, "kernel_constraint": null, "bias_constraint": null}}, "data_init": false}, "name": "weight_normalization_75", "inbound_nodes": [[["weight_normalization_74", 0, 0, {}]]]}, {"class_name": "Add", "config": {"name": "add_24", "trainable": true, "dtype": "float32"}, "name": "add_24", "inbound_nodes": [[["add_23", 0, 0, {}], ["weight_normalization_75", 0, 0, {}]]]}, {"class_name": "Addons>WeightNormalization", "config": {"name": "weight_normalization_76", "trainable": true, "dtype": "float32", "layer": {"class_name": "Conv2D", "config": {"name": "conv2d_76", "trainable": true, "dtype": "float32", "filters": 192, "kernel_size": [1, 1], "strides": [1, 1], "padding": "same", "data_format": "channels_last", "dilation_rate": [1, 1], "groups": 1, "activation": "relu", "use_bias": true, "kernel_initializer": {"class_name": "GlorotUniform", "config": {"seed": null}}, "bias_initializer": {"class_name": "Zeros", "config": {}}, "kernel_regularizer": null, "bias_regularizer": null, "activity_regularizer": null, "kernel_constraint": null, "bias_constraint": null}}, "data_init": false}, "name": "weight_normalization_76", "inbound_nodes": [[["add_24", 0, 0, {}]]]}, {"class_name": "Addons>WeightNormalization", "config": {"name": "weight_normalization_77", "trainable": true, "dtype": "float32", "layer": {"class_name": "Conv2D", "config": {"name": "conv2d_77", "trainable": true, "dtype": "float32", "filters": 25, "kernel_size": [1, 1], "strides": [1, 1], "padding": "same", "data_format": "channels_last", "dilation_rate": [1, 1], "groups": 1, "activation": "linear", "use_bias": true, "kernel_initializer": {"class_name": "GlorotUniform", "config": {"seed": null}}, "bias_initializer": {"class_name": "Zeros", "config": {}}, "kernel_regularizer": null, "bias_regularizer": null, "activity_regularizer": null, "kernel_constraint": null, "bias_constraint": null}}, "data_init": false}, "name": "weight_normalization_77", "inbound_nodes": [[["weight_normalization_76", 0, 0, {}]]]}, {"class_name": "Addons>WeightNormalization", "config": {"name": "weight_normalization_78", "trainable": true, "dtype": "float32", "layer": {"class_name": "Conv2D", "config": {"name": "conv2d_78", "trainable": true, "dtype": "float32", "filters": 32, "kernel_size": [3, 3], "strides": [1, 1], "padding": "same", "data_format": "channels_last", "dilation_rate": [1, 1], "groups": 1, "activation": "linear", "use_bias": true, "kernel_initializer": {"class_name": "GlorotUniform", "config": {"seed": null}}, "bias_initializer": {"class_name": "Zeros", "config": {}}, "kernel_regularizer": null, "bias_regularizer": null, "activity_regularizer": null, "kernel_constraint": null, "bias_constraint": null}}, "data_init": false}, "name": "weight_normalization_78", "inbound_nodes": [[["weight_normalization_77", 0, 0, {}]]]}, {"class_name": "Add", "config": {"name": "add_25", "trainable": true, "dtype": "float32"}, "name": "add_25", "inbound_nodes": [[["add_24", 0, 0, {}], ["weight_normalization_78", 0, 0, {}]]]}, {"class_name": "Addons>WeightNormalization", "config": {"name": "weight_normalization_79", "trainable": true, "dtype": "float32", "layer": {"class_name": "Conv2D", "config": {"name": "conv2d_79", "trainable": true, "dtype": "float32", "filters": 192, "kernel_size": [1, 1], "strides": [1, 1], "padding": "same", "data_format": "channels_last", "dilation_rate": [1, 1], "groups": 1, "activation": "relu", "use_bias": true, "kernel_initializer": {"class_name": "GlorotUniform", "config": {"seed": null}}, "bias_initializer": {"class_name": "Zeros", "config": {}}, "kernel_regularizer": null, "bias_regularizer": null, "activity_regularizer": null, "kernel_constraint": null, "bias_constraint": null}}, "data_init": false}, "name": "weight_normalization_79", "inbound_nodes": [[["add_25", 0, 0, {}]]]}, {"class_name": "Addons>WeightNormalization", "config": {"name": "weight_normalization_80", "trainable": true, "dtype": "float32", "layer": {"class_name": "Conv2D", "config": {"name": "conv2d_80", "trainable": true, "dtype": "float32", "filters": 25, "kernel_size": [1, 1], "strides": [1, 1], "padding": "same", "data_format": "channels_last", "dilation_rate": [1, 1], "groups": 1, "activation": "linear", "use_bias": true, "kernel_initializer": {"class_name": "GlorotUniform", "config": {"seed": null}}, "bias_initializer": {"class_name": "Zeros", "config": {}}, "kernel_regularizer": null, "bias_regularizer": null, "activity_regularizer": null, "kernel_constraint": null, "bias_constraint": null}}, "data_init": false}, "name": "weight_normalization_80", "inbound_nodes": [[["weight_normalization_79", 0, 0, {}]]]}, {"class_name": "Addons>WeightNormalization", "config": {"name": "weight_normalization_81", "trainable": true, "dtype": "float32", "layer": {"class_name": "Conv2D", "config": {"name": "conv2d_81", "trainable": true, "dtype": "float32", "filters": 32, "kernel_size": [3, 3], "strides": [1, 1], "padding": "same", "data_format": "channels_last", "dilation_rate": [1, 1], "groups": 1, "activation": "linear", "use_bias": true, "kernel_initializer": {"class_name": "GlorotUniform", "config": {"seed": null}}, "bias_initializer": {"class_name": "Zeros", "config": {}}, "kernel_regularizer": null, "bias_regularizer": null, "activity_regularizer": null, "kernel_constraint": null, "bias_constraint": null}}, "data_init": false}, "name": "weight_normalization_81", "inbound_nodes": [[["weight_normalization_80", 0, 0, {}]]]}, {"class_name": "Add", "config": {"name": "add_26", "trainable": true, "dtype": "float32"}, "name": "add_26", "inbound_nodes": [[["add_25", 0, 0, {}], ["weight_normalization_81", 0, 0, {}]]]}, {"class_name": "Addons>WeightNormalization", "config": {"name": "weight_normalization_82", "trainable": true, "dtype": "float32", "layer": {"class_name": "Conv2D", "config": {"name": "conv2d_82", "trainable": true, "dtype": "float32", "filters": 192, "kernel_size": [1, 1], "strides": [1, 1], "padding": "same", "data_format": "channels_last", "dilation_rate": [1, 1], "groups": 1, "activation": "relu", "use_bias": true, "kernel_initializer": {"class_name": "GlorotUniform", "config": {"seed": null}}, "bias_initializer": {"class_name": "Zeros", "config": {}}, "kernel_regularizer": null, "bias_regularizer": null, "activity_regularizer": null, "kernel_constraint": null, "bias_constraint": null}}, "data_init": false}, "name": "weight_normalization_82", "inbound_nodes": [[["add_26", 0, 0, {}]]]}, {"class_name": "Addons>WeightNormalization", "config": {"name": "weight_normalization_83", "trainable": true, "dtype": "float32", "layer": {"class_name": "Conv2D", "config": {"name": "conv2d_83", "trainable": true, "dtype": "float32", "filters": 25, "kernel_size": [1, 1], "strides": [1, 1], "padding": "same", "data_format": "channels_last", "dilation_rate": [1, 1], "groups": 1, "activation": "linear", "use_bias": true, "kernel_initializer": {"class_name": "GlorotUniform", "config": {"seed": null}}, "bias_initializer": {"class_name": "Zeros", "config": {}}, "kernel_regularizer": null, "bias_regularizer": null, "activity_regularizer": null, "kernel_constraint": null, "bias_constraint": null}}, "data_init": false}, "name": "weight_normalization_83", "inbound_nodes": [[["weight_normalization_82", 0, 0, {}]]]}, {"class_name": "Addons>WeightNormalization", "config": {"name": "weight_normalization_84", "trainable": true, "dtype": "float32", "layer": {"class_name": "Conv2D", "config": {"name": "conv2d_84", "trainable": true, "dtype": "float32", "filters": 32, "kernel_size": [3, 3], "strides": [1, 1], "padding": "same", "data_format": "channels_last", "dilation_rate": [1, 1], "groups": 1, "activation": "linear", "use_bias": true, "kernel_initializer": {"class_name": "GlorotUniform", "config": {"seed": null}}, "bias_initializer": {"class_name": "Zeros", "config": {}}, "kernel_regularizer": null, "bias_regularizer": null, "activity_regularizer": null, "kernel_constraint": null, "bias_constraint": null}}, "data_init": false}, "name": "weight_normalization_84", "inbound_nodes": [[["weight_normalization_83", 0, 0, {}]]]}, {"class_name": "Add", "config": {"name": "add_27", "trainable": true, "dtype": "float32"}, "name": "add_27", "inbound_nodes": [[["add_26", 0, 0, {}], ["weight_normalization_84", 0, 0, {}]]]}, {"class_name": "Addons>WeightNormalization", "config": {"name": "weight_normalization_85", "trainable": true, "dtype": "float32", "layer": {"class_name": "Conv2D", "config": {"name": "conv2d_85", "trainable": true, "dtype": "float32", "filters": 192, "kernel_size": [1, 1], "strides": [1, 1], "padding": "same", "data_format": "channels_last", "dilation_rate": [1, 1], "groups": 1, "activation": "relu", "use_bias": true, "kernel_initializer": {"class_name": "GlorotUniform", "config": {"seed": null}}, "bias_initializer": {"class_name": "Zeros", "config": {}}, "kernel_regularizer": null, "bias_regularizer": null, "activity_regularizer": null, "kernel_constraint": null, "bias_constraint": null}}, "data_init": false}, "name": "weight_normalization_85", "inbound_nodes": [[["add_27", 0, 0, {}]]]}, {"class_name": "Addons>WeightNormalization", "config": {"name": "weight_normalization_86", "trainable": true, "dtype": "float32", "layer": {"class_name": "Conv2D", "config": {"name": "conv2d_86", "trainable": true, "dtype": "float32", "filters": 25, "kernel_size": [1, 1], "strides": [1, 1], "padding": "same", "data_format": "channels_last", "dilation_rate": [1, 1], "groups": 1, "activation": "linear", "use_bias": true, "kernel_initializer": {"class_name": "GlorotUniform", "config": {"seed": null}}, "bias_initializer": {"class_name": "Zeros", "config": {}}, "kernel_regularizer": null, "bias_regularizer": null, "activity_regularizer": null, "kernel_constraint": null, "bias_constraint": null}}, "data_init": false}, "name": "weight_normalization_86", "inbound_nodes": [[["weight_normalization_85", 0, 0, {}]]]}, {"class_name": "Addons>WeightNormalization", "config": {"name": "weight_normalization_87", "trainable": true, "dtype": "float32", "layer": {"class_name": "Conv2D", "config": {"name": "conv2d_87", "trainable": true, "dtype": "float32", "filters": 32, "kernel_size": [3, 3], "strides": [1, 1], "padding": "same", "data_format": "channels_last", "dilation_rate": [1, 1], "groups": 1, "activation": "linear", "use_bias": true, "kernel_initializer": {"class_name": "GlorotUniform", "config": {"seed": null}}, "bias_initializer": {"class_name": "Zeros", "config": {}}, "kernel_regularizer": null, "bias_regularizer": null, "activity_regularizer": null, "kernel_constraint": null, "bias_constraint": null}}, "data_init": false}, "name": "weight_normalization_87", "inbound_nodes": [[["weight_normalization_86", 0, 0, {}]]]}, {"class_name": "Add", "config": {"name": "add_28", "trainable": true, "dtype": "float32"}, "name": "add_28", "inbound_nodes": [[["add_27", 0, 0, {}], ["weight_normalization_87", 0, 0, {}]]]}, {"class_name": "Addons>WeightNormalization", "config": {"name": "weight_normalization_88", "trainable": true, "dtype": "float32", "layer": {"class_name": "Conv2D", "config": {"name": "conv2d_88", "trainable": true, "dtype": "float32", "filters": 192, "kernel_size": [1, 1], "strides": [1, 1], "padding": "same", "data_format": "channels_last", "dilation_rate": [1, 1], "groups": 1, "activation": "relu", "use_bias": true, "kernel_initializer": {"class_name": "GlorotUniform", "config": {"seed": null}}, "bias_initializer": {"class_name": "Zeros", "config": {}}, "kernel_regularizer": null, "bias_regularizer": null, "activity_regularizer": null, "kernel_constraint": null, "bias_constraint": null}}, "data_init": false}, "name": "weight_normalization_88", "inbound_nodes": [[["add_28", 0, 0, {}]]]}, {"class_name": "Addons>WeightNormalization", "config": {"name": "weight_normalization_89", "trainable": true, "dtype": "float32", "layer": {"class_name": "Conv2D", "config": {"name": "conv2d_89", "trainable": true, "dtype": "float32", "filters": 25, "kernel_size": [1, 1], "strides": [1, 1], "padding": "same", "data_format": "channels_last", "dilation_rate": [1, 1], "groups": 1, "activation": "linear", "use_bias": true, "kernel_initializer": {"class_name": "GlorotUniform", "config": {"seed": null}}, "bias_initializer": {"class_name": "Zeros", "config": {}}, "kernel_regularizer": null, "bias_regularizer": null, "activity_regularizer": null, "kernel_constraint": null, "bias_constraint": null}}, "data_init": false}, "name": "weight_normalization_89", "inbound_nodes": [[["weight_normalization_88", 0, 0, {}]]]}, {"class_name": "Addons>WeightNormalization", "config": {"name": "weight_normalization_90", "trainable": true, "dtype": "float32", "layer": {"class_name": "Conv2D", "config": {"name": "conv2d_90", "trainable": true, "dtype": "float32", "filters": 32, "kernel_size": [3, 3], "strides": [1, 1], "padding": "same", "data_format": "channels_last", "dilation_rate": [1, 1], "groups": 1, "activation": "linear", "use_bias": true, "kernel_initializer": {"class_name": "GlorotUniform", "config": {"seed": null}}, "bias_initializer": {"class_name": "Zeros", "config": {}}, "kernel_regularizer": null, "bias_regularizer": null, "activity_regularizer": null, "kernel_constraint": null, "bias_constraint": null}}, "data_init": false}, "name": "weight_normalization_90", "inbound_nodes": [[["weight_normalization_89", 0, 0, {}]]]}, {"class_name": "Add", "config": {"name": "add_29", "trainable": true, "dtype": "float32"}, "name": "add_29", "inbound_nodes": [[["add_28", 0, 0, {}], ["weight_normalization_90", 0, 0, {}]]]}, {"class_name": "Addons>WeightNormalization", "config": {"name": "weight_normalization_91", "trainable": true, "dtype": "float32", "layer": {"class_name": "Conv2D", "config": {"name": "conv2d_91", "trainable": true, "dtype": "float32", "filters": 192, "kernel_size": [1, 1], "strides": [1, 1], "padding": "same", "data_format": "channels_last", "dilation_rate": [1, 1], "groups": 1, "activation": "relu", "use_bias": true, "kernel_initializer": {"class_name": "GlorotUniform", "config": {"seed": null}}, "bias_initializer": {"class_name": "Zeros", "config": {}}, "kernel_regularizer": null, "bias_regularizer": null, "activity_regularizer": null, "kernel_constraint": null, "bias_constraint": null}}, "data_init": false}, "name": "weight_normalization_91", "inbound_nodes": [[["add_29", 0, 0, {}]]]}, {"class_name": "Addons>WeightNormalization", "config": {"name": "weight_normalization_92", "trainable": true, "dtype": "float32", "layer": {"class_name": "Conv2D", "config": {"name": "conv2d_92", "trainable": true, "dtype": "float32", "filters": 25, "kernel_size": [1, 1], "strides": [1, 1], "padding": "same", "data_format": "channels_last", "dilation_rate": [1, 1], "groups": 1, "activation": "linear", "use_bias": true, "kernel_initializer": {"class_name": "GlorotUniform", "config": {"seed": null}}, "bias_initializer": {"class_name": "Zeros", "config": {}}, "kernel_regularizer": null, "bias_regularizer": null, "activity_regularizer": null, "kernel_constraint": null, "bias_constraint": null}}, "data_init": false}, "name": "weight_normalization_92", "inbound_nodes": [[["weight_normalization_91", 0, 0, {}]]]}, {"class_name": "Addons>WeightNormalization", "config": {"name": "weight_normalization_93", "trainable": true, "dtype": "float32", "layer": {"class_name": "Conv2D", "config": {"name": "conv2d_93", "trainable": true, "dtype": "float32", "filters": 32, "kernel_size": [3, 3], "strides": [1, 1], "padding": "same", "data_format": "channels_last", "dilation_rate": [1, 1], "groups": 1, "activation": "linear", "use_bias": true, "kernel_initializer": {"class_name": "GlorotUniform", "config": {"seed": null}}, "bias_initializer": {"class_name": "Zeros", "config": {}}, "kernel_regularizer": null, "bias_regularizer": null, "activity_regularizer": null, "kernel_constraint": null, "bias_constraint": null}}, "data_init": false}, "name": "weight_normalization_93", "inbound_nodes": [[["weight_normalization_92", 0, 0, {}]]]}, {"class_name": "Add", "config": {"name": "add_30", "trainable": true, "dtype": "float32"}, "name": "add_30", "inbound_nodes": [[["add_29", 0, 0, {}], ["weight_normalization_93", 0, 0, {}]]]}, {"class_name": "Addons>WeightNormalization", "config": {"name": "weight_normalization_94", "trainable": true, "dtype": "float32", "layer": {"class_name": "Conv2D", "config": {"name": "conv2d_94", "trainable": true, "dtype": "float32", "filters": 192, "kernel_size": [1, 1], "strides": [1, 1], "padding": "same", "data_format": "channels_last", "dilation_rate": [1, 1], "groups": 1, "activation": "relu", "use_bias": true, "kernel_initializer": {"class_name": "GlorotUniform", "config": {"seed": null}}, "bias_initializer": {"class_name": "Zeros", "config": {}}, "kernel_regularizer": null, "bias_regularizer": null, "activity_regularizer": null, "kernel_constraint": null, "bias_constraint": null}}, "data_init": false}, "name": "weight_normalization_94", "inbound_nodes": [[["add_30", 0, 0, {}]]]}, {"class_name": "Addons>WeightNormalization", "config": {"name": "weight_normalization_95", "trainable": true, "dtype": "float32", "layer": {"class_name": "Conv2D", "config": {"name": "conv2d_95", "trainable": true, "dtype": "float32", "filters": 25, "kernel_size": [1, 1], "strides": [1, 1], "padding": "same", "data_format": "channels_last", "dilation_rate": [1, 1], "groups": 1, "activation": "linear", "use_bias": true, "kernel_initializer": {"class_name": "GlorotUniform", "config": {"seed": null}}, "bias_initializer": {"class_name": "Zeros", "config": {}}, "kernel_regularizer": null, "bias_regularizer": null, "activity_regularizer": null, "kernel_constraint": null, "bias_constraint": null}}, "data_init": false}, "name": "weight_normalization_95", "inbound_nodes": [[["weight_normalization_94", 0, 0, {}]]]}, {"class_name": "Addons>WeightNormalization", "config": {"name": "weight_normalization_96", "trainable": true, "dtype": "float32", "layer": {"class_name": "Conv2D", "config": {"name": "conv2d_96", "trainable": true, "dtype": "float32", "filters": 32, "kernel_size": [3, 3], "strides": [1, 1], "padding": "same", "data_format": "channels_last", "dilation_rate": [1, 1], "groups": 1, "activation": "linear", "use_bias": true, "kernel_initializer": {"class_name": "GlorotUniform", "config": {"seed": null}}, "bias_initializer": {"class_name": "Zeros", "config": {}}, "kernel_regularizer": null, "bias_regularizer": null, "activity_regularizer": null, "kernel_constraint": null, "bias_constraint": null}}, "data_init": false}, "name": "weight_normalization_96", "inbound_nodes": [[["weight_normalization_95", 0, 0, {}]]]}, {"class_name": "Add", "config": {"name": "add_31", "trainable": true, "dtype": "float32"}, "name": "add_31", "inbound_nodes": [[["add_30", 0, 0, {}], ["weight_normalization_96", 0, 0, {}]]]}, {"class_name": "Addons>WeightNormalization", "config": {"name": "weight_normalization_97", "trainable": true, "dtype": "float32", "layer": {"class_name": "Conv2D", "config": {"name": "conv2d_main_scale_4", "trainable": true, "dtype": "float32", "filters": 48, "kernel_size": [3, 3], "strides": [1, 1], "padding": "same", "data_format": "channels_last", "dilation_rate": [1, 1], "groups": 1, "activation": "linear", "use_bias": true, "kernel_initializer": {"class_name": "GlorotUniform", "config": {"seed": null}}, "bias_initializer": {"class_name": "Zeros", "config": {}}, "kernel_regularizer": null, "bias_regularizer": null, "activity_regularizer": null, "kernel_constraint": null, "bias_constraint": null}}, "data_init": false}, "name": "weight_normalization_97", "inbound_nodes": [[["add_31", 0, 0, {}]]]}, {"class_name": "Addons>WeightNormalization", "config": {"name": "weight_normalization_98", "trainable": true, "dtype": "float32", "layer": {"class_name": "Conv2D", "config": {"name": "conv2d_skip_scale_4", "trainable": true, "dtype": "float32", "filters": 48, "kernel_size": [5, 5], "strides": [1, 1], "padding": "same", "data_format": "channels_last", "dilation_rate": [1, 1], "groups": 1, "activation": "linear", "use_bias": true, "kernel_initializer": {"class_name": "GlorotUniform", "config": {"seed": null}}, "bias_initializer": {"class_name": "Zeros", "config": {}}, "kernel_regularizer": null, "bias_regularizer": null, "activity_regularizer": null, "kernel_constraint": null, "bias_constraint": null}}, "data_init": false}, "name": "weight_normalization_98", "inbound_nodes": [[["lambda", 0, 0, {}]]]}, {"class_name": "Lambda", "config": {"name": "lambda_1", "trainable": true, "dtype": "float32", "function": ["4wEAAAAAAAAAAQAAAAMAAAATAAAAcw4AAAB0AGoBagJ8AIgAgwJTACkBTikD2gJ0ZtoCbm7aDmRl\ncHRoX3RvX3NwYWNlKQHaAXgpAdoFc2NhbGWpAPpFRDovUHJvamVjdHMvU2t5bmV0aXgvYWkvdmlk\nZW8tY29kZWMtcHl0aG9uL2NvbnZlcnRlcnMvbW9kZWwvY29tbW9uLnB52gg8bGFtYmRhPkkAAADz\nAAAAAA==\n", null, [4]], "function_type": "lambda", "module": "converters.model.common", "output_shape": null, "output_shape_type": "raw", "output_shape_module": null, "arguments": {}}, "name": "lambda_1", "inbound_nodes": [[["weight_normalization_97", 0, 0, {}]]]}, {"class_name": "Lambda", "config": {"name": "lambda_2", "trainable": true, "dtype": "float32", "function": ["4wEAAAAAAAAAAQAAAAMAAAATAAAAcw4AAAB0AGoBagJ8AIgAgwJTACkBTikD2gJ0ZtoCbm7aDmRl\ncHRoX3RvX3NwYWNlKQHaAXgpAdoFc2NhbGWpAPpFRDovUHJvamVjdHMvU2t5bmV0aXgvYWkvdmlk\nZW8tY29kZWMtcHl0aG9uL2NvbnZlcnRlcnMvbW9kZWwvY29tbW9uLnB52gg8bGFtYmRhPkkAAADz\nAAAAAA==\n", null, [4]], "function_type": "lambda", "module": "converters.model.common", "output_shape": null, "output_shape_type": "raw", "output_shape_module": null, "arguments": {}}, "name": "lambda_2", "inbound_nodes": [[["weight_normalization_98", 0, 0, {}]]]}, {"class_name": "Add", "config": {"name": "add_32", "trainable": true, "dtype": "float32"}, "name": "add_32", "inbound_nodes": [[["lambda_1", 0, 0, {}], ["lambda_2", 0, 0, {}]]]}, {"class_name": "Lambda", "config": {"name": "lambda_3", "trainable": true, "dtype": "float32", "function": ["4wIAAAAAAAAAAgAAAAIAAABDAAAAcwwAAAB8AGQBFAB8ARcAUwApAk5nAAAAAADgX0CpACkC2gF4\n2ghyZ2JfbWVhbnIBAAAAcgEAAAD6RUQ6L1Byb2plY3RzL1NreW5ldGl4L2FpL3ZpZGVvLWNvZGVj\nLXB5dGhvbi9jb252ZXJ0ZXJzL21vZGVsL2NvbW1vbi5wedoLZGVub3JtYWxpemUnAAAAcwIAAAAA\nAQ==\n", [[114.44399999999999, 111.4605, 103.02000000000001]], null], "function_type": "lambda", "module": "converters.model.common", "output_shape": null, "output_shape_type": "raw", "output_shape_module": null, "arguments": {}}, "name": "lambda_3", "inbound_nodes": [[["add_32", 0, 0, {}]]]}], "input_layers": [["input_1", 0, 0]], "output_layers": [["lambda_3", 0, 0]]}}}, "weightsManifest": [{"paths": ["group1-shard1of1.bin"], "weights": [{"name": "weight_normalization/g", "shape": [32], "dtype": "float32"}, {"name": "weight_normalization/kernel", "shape": [3, 3, 3, 32], "dtype": "float32"}, {"name": "weight_normalization/bias", "shape": [32], "dtype": "float32"}, {"name": "weight_normalization/initialized", "shape": [], "dtype": "bool"}, {"name": "weight_normalization_1/g", "shape": [192], "dtype": "float32"}, {"name": "weight_normalization_1/kernel", "shape": [1, 1, 32, 192], "dtype": "float32"}, {"name": "weight_normalization_1/bias", "shape": [192], "dtype": "float32"}, {"name": "weight_normalization_1/initialized", "shape": [], "dtype": "bool"}, {"name": "weight_normalization_10/g", "shape": [192], "dtype": "float32"}, {"name": "weight_normalization_10/kernel", "shape": [1, 1, 32, 192], "dtype": "float32"}, {"name": "weight_normalization_10/bias", "shape": [192], "dtype": "float32"}, {"name": "weight_normalization_10/initialized", "shape": [], "dtype": "bool"}, {"name": "weight_normalization_11/g", "shape": [25], "dtype": "float32"}, {"name": "weight_normalization_11/kernel", "shape": [1, 1, 192, 25], "dtype": "float32"}, {"name": "weight_normalization_11/bias", "shape": [25], "dtype": "float32"}, {"name": "weight_normalization_11/initialized", "shape": [], "dtype": "bool"}, {"name": "weight_normalization_12/g", "shape": [32], "dtype": "float32"}, {"name": "weight_normalization_12/kernel", "shape": [3, 3, 25, 32], "dtype": "float32"}, {"name": "weight_normalization_12/bias", "shape": [32], "dtype": "float32"}, {"name": "weight_normalization_12/initialized", "shape": [], "dtype": "bool"}, {"name": "weight_normalization_13/g", "shape": [192], "dtype": "float32"}, {"name": "weight_normalization_13/kernel", "shape": [1, 1, 32, 192], "dtype": "float32"}, {"name": "weight_normalization_13/bias", "shape": [192], "dtype": "float32"}, {"name": "weight_normalization_13/initialized", "shape": [], "dtype": "bool"}, {"name": "weight_normalization_14/g", "shape": [25], "dtype": "float32"}, {"name": "weight_normalization_14/kernel", "shape": [1, 1, 192, 25], "dtype": "float32"}, {"name": "weight_normalization_14/bias", "shape": [25], "dtype": "float32"}, {"name": "weight_normalization_14/initialized", "shape": [], "dtype": "bool"}, {"name": "weight_normalization_15/g", "shape": [32], "dtype": "float32"}, {"name": "weight_normalization_15/kernel", "shape": [3, 3, 25, 32], "dtype": "float32"}, {"name": "weight_normalization_15/bias", "shape": [32], "dtype": "float32"}, {"name": "weight_normalization_15/initialized", "shape": [], "dtype": "bool"}, {"name": "weight_normalization_16/g", "shape": [192], "dtype": "float32"}, {"name": "weight_normalization_16/kernel", "shape": [1, 1, 32, 192], "dtype": "float32"}, {"name": "weight_normalization_16/bias", "shape": [192], "dtype": "float32"}, {"name": "weight_normalization_16/initialized", "shape": [], "dtype": "bool"}, {"name": "weight_normalization_17/g", "shape": [25], "dtype": "float32"}, {"name": "weight_normalization_17/kernel", "shape": [1, 1, 192, 25], "dtype": "float32"}, {"name": "weight_normalization_17/bias", "shape": [25], "dtype": "float32"}, {"name": "weight_normalization_17/initialized", "shape": [], "dtype": "bool"}, {"name": "weight_normalization_18/g", "shape": [32], "dtype": "float32"}, {"name": "weight_normalization_18/kernel", "shape": [3, 3, 25, 32], "dtype": "float32"}, {"name": "weight_normalization_18/bias", "shape": [32], "dtype": "float32"}, {"name": "weight_normalization_18/initialized", "shape": [], "dtype": "bool"}, {"name": "weight_normalization_19/g", "shape": [192], "dtype": "float32"}, {"name": "weight_normalization_19/kernel", "shape": [1, 1, 32, 192], "dtype": "float32"}, {"name": "weight_normalization_19/bias", "shape": [192], "dtype": "float32"}, {"name": "weight_normalization_19/initialized", "shape": [], "dtype": "bool"}, {"name": "weight_normalization_2/g", "shape": [25], "dtype": "float32"}, {"name": "weight_normalization_2/kernel", "shape": [1, 1, 192, 25], "dtype": "float32"}, {"name": "weight_normalization_2/bias", "shape": [25], "dtype": "float32"}, {"name": "weight_normalization_2/initialized", "shape": [], "dtype": "bool"}, {"name": "weight_normalization_20/g", "shape": [25], "dtype": "float32"}, {"name": "weight_normalization_20/kernel", "shape": [1, 1, 192, 25], "dtype": "float32"}, {"name": "weight_normalization_20/bias", "shape": [25], "dtype": "float32"}, {"name": "weight_normalization_20/initialized", "shape": [], "dtype": "bool"}, {"name": "weight_normalization_21/g", "shape": [32], "dtype": "float32"}, {"name": "weight_normalization_21/kernel", "shape": [3, 3, 25, 32], "dtype": "float32"}, {"name": "weight_normalization_21/bias", "shape": [32], "dtype": "float32"}, {"name": "weight_normalization_21/initialized", "shape": [], "dtype": "bool"}, {"name": "weight_normalization_22/g", "shape": [192], "dtype": "float32"}, {"name": "weight_normalization_22/kernel", "shape": [1, 1, 32, 192], "dtype": "float32"}, {"name": "weight_normalization_22/bias", "shape": [192], "dtype": "float32"}, {"name": "weight_normalization_22/initialized", "shape": [], "dtype": "bool"}, {"name": "weight_normalization_23/g", "shape": [25], "dtype": "float32"}, {"name": "weight_normalization_23/kernel", "shape": [1, 1, 192, 25], "dtype": "float32"}, {"name": "weight_normalization_23/bias", "shape": [25], "dtype": "float32"}, {"name": "weight_normalization_23/initialized", "shape": [], "dtype": "bool"}, {"name": "weight_normalization_24/g", "shape": [32], "dtype": "float32"}, {"name": "weight_normalization_24/kernel", "shape": [3, 3, 25, 32], "dtype": "float32"}, {"name": "weight_normalization_24/bias", "shape": [32], "dtype": "float32"}, {"name": "weight_normalization_24/initialized", "shape": [], "dtype": "bool"}, {"name": "weight_normalization_25/g", "shape": [192], "dtype": "float32"}, {"name": "weight_normalization_25/kernel", "shape": [1, 1, 32, 192], "dtype": "float32"}, {"name": "weight_normalization_25/bias", "shape": [192], "dtype": "float32"}, {"name": "weight_normalization_25/initialized", "shape": [], "dtype": "bool"}, {"name": "weight_normalization_26/g", "shape": [25], "dtype": "float32"}, {"name": "weight_normalization_26/kernel", "shape": [1, 1, 192, 25], "dtype": "float32"}, {"name": "weight_normalization_26/bias", "shape": [25], "dtype": "float32"}, {"name": "weight_normalization_26/initialized", "shape": [], "dtype": "bool"}, {"name": "weight_normalization_27/g", "shape": [32], "dtype": "float32"}, {"name": "weight_normalization_27/kernel", "shape": [3, 3, 25, 32], "dtype": "float32"}, {"name": "weight_normalization_27/bias", "shape": [32], "dtype": "float32"}, {"name": "weight_normalization_27/initialized", "shape": [], "dtype": "bool"}, {"name": "weight_normalization_28/g", "shape": [192], "dtype": "float32"}, {"name": "weight_normalization_28/kernel", "shape": [1, 1, 32, 192], "dtype": "float32"}, {"name": "weight_normalization_28/bias", "shape": [192], "dtype": "float32"}, {"name": "weight_normalization_28/initialized", "shape": [], "dtype": "bool"}, {"name": "weight_normalization_29/g", "shape": [25], "dtype": "float32"}, {"name": "weight_normalization_29/kernel", "shape": [1, 1, 192, 25], "dtype": "float32"}, {"name": "weight_normalization_29/bias", "shape": [25], "dtype": "float32"}, {"name": "weight_normalization_29/initialized", "shape": [], "dtype": "bool"}, {"name": "weight_normalization_3/g", "shape": [32], "dtype": "float32"}, {"name": "weight_normalization_3/kernel", "shape": [3, 3, 25, 32], "dtype": "float32"}, {"name": "weight_normalization_3/bias", "shape": [32], "dtype": "float32"}, {"name": "weight_normalization_3/initialized", "shape": [], "dtype": "bool"}, {"name": "weight_normalization_30/g", "shape": [32], "dtype": "float32"}, {"name": "weight_normalization_30/kernel", "shape": [3, 3, 25, 32], "dtype": "float32"}, {"name": "weight_normalization_30/bias", "shape": [32], "dtype": "float32"}, {"name": "weight_normalization_30/initialized", "shape": [], "dtype": "bool"}, {"name": "weight_normalization_31/g", "shape": [192], "dtype": "float32"}, {"name": "weight_normalization_31/kernel", "shape": [1, 1, 32, 192], "dtype": "float32"}, {"name": "weight_normalization_31/bias", "shape": [192], "dtype": "float32"}, {"name": "weight_normalization_31/initialized", "shape": [], "dtype": "bool"}, {"name": "weight_normalization_32/g", "shape": [25], "dtype": "float32"}, {"name": "weight_normalization_32/kernel", "shape": [1, 1, 192, 25], "dtype": "float32"}, {"name": "weight_normalization_32/bias", "shape": [25], "dtype": "float32"}, {"name": "weight_normalization_32/initialized", "shape": [], "dtype": "bool"}, {"name": "weight_normalization_33/g", "shape": [32], "dtype": "float32"}, {"name": "weight_normalization_33/kernel", "shape": [3, 3, 25, 32], "dtype": "float32"}, {"name": "weight_normalization_33/bias", "shape": [32], "dtype": "float32"}, {"name": "weight_normalization_33/initialized", "shape": [], "dtype": "bool"}, {"name": "weight_normalization_34/g", "shape": [192], "dtype": "float32"}, {"name": "weight_normalization_34/kernel", "shape": [1, 1, 32, 192], "dtype": "float32"}, {"name": "weight_normalization_34/bias", "shape": [192], "dtype": "float32"}, {"name": "weight_normalization_34/initialized", "shape": [], "dtype": "bool"}, {"name": "weight_normalization_35/g", "shape": [25], "dtype": "float32"}, {"name": "weight_normalization_35/kernel", "shape": [1, 1, 192, 25], "dtype": "float32"}, {"name": "weight_normalization_35/bias", "shape": [25], "dtype": "float32"}, {"name": "weight_normalization_35/initialized", "shape": [], "dtype": "bool"}, {"name": "weight_normalization_36/g", "shape": [32], "dtype": "float32"}, {"name": "weight_normalization_36/kernel", "shape": [3, 3, 25, 32], "dtype": "float32"}, {"name": "weight_normalization_36/bias", "shape": [32], "dtype": "float32"}, {"name": "weight_normalization_36/initialized", "shape": [], "dtype": "bool"}, {"name": "weight_normalization_37/g", "shape": [192], "dtype": "float32"}, {"name": "weight_normalization_37/kernel", "shape": [1, 1, 32, 192], "dtype": "float32"}, {"name": "weight_normalization_37/bias", "shape": [192], "dtype": "float32"}, {"name": "weight_normalization_37/initialized", "shape": [], "dtype": "bool"}, {"name": "weight_normalization_38/g", "shape": [25], "dtype": "float32"}, {"name": "weight_normalization_38/kernel", "shape": [1, 1, 192, 25], "dtype": "float32"}, {"name": "weight_normalization_38/bias", "shape": [25], "dtype": "float32"}, {"name": "weight_normalization_38/initialized", "shape": [], "dtype": "bool"}, {"name": "weight_normalization_39/g", "shape": [32], "dtype": "float32"}, {"name": "weight_normalization_39/kernel", "shape": [3, 3, 25, 32], "dtype": "float32"}, {"name": "weight_normalization_39/bias", "shape": [32], "dtype": "float32"}, {"name": "weight_normalization_39/initialized", "shape": [], "dtype": "bool"}, {"name": "weight_normalization_4/g", "shape": [192], "dtype": "float32"}, {"name": "weight_normalization_4/kernel", "shape": [1, 1, 32, 192], "dtype": "float32"}, {"name": "weight_normalization_4/bias", "shape": [192], "dtype": "float32"}, {"name": "weight_normalization_4/initialized", "shape": [], "dtype": "bool"}, {"name": "weight_normalization_40/g", "shape": [192], "dtype": "float32"}, {"name": "weight_normalization_40/kernel", "shape": [1, 1, 32, 192], "dtype": "float32"}, {"name": "weight_normalization_40/bias", "shape": [192], "dtype": "float32"}, {"name": "weight_normalization_40/initialized", "shape": [], "dtype": "bool"}, {"name": "weight_normalization_41/g", "shape": [25], "dtype": "float32"}, {"name": "weight_normalization_41/kernel", "shape": [1, 1, 192, 25], "dtype": "float32"}, {"name": "weight_normalization_41/bias", "shape": [25], "dtype": "float32"}, {"name": "weight_normalization_41/initialized", "shape": [], "dtype": "bool"}, {"name": "weight_normalization_42/g", "shape": [32], "dtype": "float32"}, {"name": "weight_normalization_42/kernel", "shape": [3, 3, 25, 32], "dtype": "float32"}, {"name": "weight_normalization_42/bias", "shape": [32], "dtype": "float32"}, {"name": "weight_normalization_42/initialized", "shape": [], "dtype": "bool"}, {"name": "weight_normalization_43/g", "shape": [192], "dtype": "float32"}, {"name": "weight_normalization_43/kernel", "shape": [1, 1, 32, 192], "dtype": "float32"}, {"name": "weight_normalization_43/bias", "shape": [192], "dtype": "float32"}, {"name": "weight_normalization_43/initialized", "shape": [], "dtype": "bool"}, {"name": "weight_normalization_44/g", "shape": [25], "dtype": "float32"}, {"name": "weight_normalization_44/kernel", "shape": [1, 1, 192, 25], "dtype": "float32"}, {"name": "weight_normalization_44/bias", "shape": [25], "dtype": "float32"}, {"name": "weight_normalization_44/initialized", "shape": [], "dtype": "bool"}, {"name": "weight_normalization_45/g", "shape": [32], "dtype": "float32"}, {"name": "weight_normalization_45/kernel", "shape": [3, 3, 25, 32], "dtype": "float32"}, {"name": "weight_normalization_45/bias", "shape": [32], "dtype": "float32"}, {"name": "weight_normalization_45/initialized", "shape": [], "dtype": "bool"}, {"name": "weight_normalization_46/g", "shape": [192], "dtype": "float32"}, {"name": "weight_normalization_46/kernel", "shape": [1, 1, 32, 192], "dtype": "float32"}, {"name": "weight_normalization_46/bias", "shape": [192], "dtype": "float32"}, {"name": "weight_normalization_46/initialized", "shape": [], "dtype": "bool"}, {"name": "weight_normalization_47/g", "shape": [25], "dtype": "float32"}, {"name": "weight_normalization_47/kernel", "shape": [1, 1, 192, 25], "dtype": "float32"}, {"name": "weight_normalization_47/bias", "shape": [25], "dtype": "float32"}, {"name": "weight_normalization_47/initialized", "shape": [], "dtype": "bool"}, {"name": "weight_normalization_48/g", "shape": [32], "dtype": "float32"}, {"name": "weight_normalization_48/kernel", "shape": [3, 3, 25, 32], "dtype": "float32"}, {"name": "weight_normalization_48/bias", "shape": [32], "dtype": "float32"}, {"name": "weight_normalization_48/initialized", "shape": [], "dtype": "bool"}, {"name": "weight_normalization_49/g", "shape": [192], "dtype": "float32"}, {"name": "weight_normalization_49/kernel", "shape": [1, 1, 32, 192], "dtype": "float32"}, {"name": "weight_normalization_49/bias", "shape": [192], "dtype": "float32"}, {"name": "weight_normalization_49/initialized", "shape": [], "dtype": "bool"}, {"name": "weight_normalization_5/g", "shape": [25], "dtype": "float32"}, {"name": "weight_normalization_5/kernel", "shape": [1, 1, 192, 25], "dtype": "float32"}, {"name": "weight_normalization_5/bias", "shape": [25], "dtype": "float32"}, {"name": "weight_normalization_5/initialized", "shape": [], "dtype": "bool"}, {"name": "weight_normalization_50/g", "shape": [25], "dtype": "float32"}, {"name": "weight_normalization_50/kernel", "shape": [1, 1, 192, 25], "dtype": "float32"}, {"name": "weight_normalization_50/bias", "shape": [25], "dtype": "float32"}, {"name": "weight_normalization_50/initialized", "shape": [], "dtype": "bool"}, {"name": "weight_normalization_51/g", "shape": [32], "dtype": "float32"}, {"name": "weight_normalization_51/kernel", "shape": [3, 3, 25, 32], "dtype": "float32"}, {"name": "weight_normalization_51/bias", "shape": [32], "dtype": "float32"}, {"name": "weight_normalization_51/initialized", "shape": [], "dtype": "bool"}, {"name": "weight_normalization_52/g", "shape": [192], "dtype": "float32"}, {"name": "weight_normalization_52/kernel", "shape": [1, 1, 32, 192], "dtype": "float32"}, {"name": "weight_normalization_52/bias", "shape": [192], "dtype": "float32"}, {"name": "weight_normalization_52/initialized", "shape": [], "dtype": "bool"}, {"name": "weight_normalization_53/g", "shape": [25], "dtype": "float32"}, {"name": "weight_normalization_53/kernel", "shape": [1, 1, 192, 25], "dtype": "float32"}, {"name": "weight_normalization_53/bias", "shape": [25], "dtype": "float32"}, {"name": "weight_normalization_53/initialized", "shape": [], "dtype": "bool"}, {"name": "weight_normalization_54/g", "shape": [32], "dtype": "float32"}, {"name": "weight_normalization_54/kernel", "shape": [3, 3, 25, 32], "dtype": "float32"}, {"name": "weight_normalization_54/bias", "shape": [32], "dtype": "float32"}, {"name": "weight_normalization_54/initialized", "shape": [], "dtype": "bool"}, {"name": "weight_normalization_55/g", "shape": [192], "dtype": "float32"}, {"name": "weight_normalization_55/kernel", "shape": [1, 1, 32, 192], "dtype": "float32"}, {"name": "weight_normalization_55/bias", "shape": [192], "dtype": "float32"}, {"name": "weight_normalization_55/initialized", "shape": [], "dtype": "bool"}, {"name": "weight_normalization_56/g", "shape": [25], "dtype": "float32"}, {"name": "weight_normalization_56/kernel", "shape": [1, 1, 192, 25], "dtype": "float32"}, {"name": "weight_normalization_56/bias", "shape": [25], "dtype": "float32"}, {"name": "weight_normalization_56/initialized", "shape": [], "dtype": "bool"}, {"name": "weight_normalization_57/g", "shape": [32], "dtype": "float32"}, {"name": "weight_normalization_57/kernel", "shape": [3, 3, 25, 32], "dtype": "float32"}, {"name": "weight_normalization_57/bias", "shape": [32], "dtype": "float32"}, {"name": "weight_normalization_57/initialized", "shape": [], "dtype": "bool"}, {"name": "weight_normalization_58/g", "shape": [192], "dtype": "float32"}, {"name": "weight_normalization_58/kernel", "shape": [1, 1, 32, 192], "dtype": "float32"}, {"name": "weight_normalization_58/bias", "shape": [192], "dtype": "float32"}, {"name": "weight_normalization_58/initialized", "shape": [], "dtype": "bool"}, {"name": "weight_normalization_59/g", "shape": [25], "dtype": "float32"}, {"name": "weight_normalization_59/kernel", "shape": [1, 1, 192, 25], "dtype": "float32"}, {"name": "weight_normalization_59/bias", "shape": [25], "dtype": "float32"}, {"name": "weight_normalization_59/initialized", "shape": [], "dtype": "bool"}, {"name": "weight_normalization_6/g", "shape": [32], "dtype": "float32"}, {"name": "weight_normalization_6/kernel", "shape": [3, 3, 25, 32], "dtype": "float32"}, {"name": "weight_normalization_6/bias", "shape": [32], "dtype": "float32"}, {"name": "weight_normalization_6/initialized", "shape": [], "dtype": "bool"}, {"name": "weight_normalization_60/g", "shape": [32], "dtype": "float32"}, {"name": "weight_normalization_60/kernel", "shape": [3, 3, 25, 32], "dtype": "float32"}, {"name": "weight_normalization_60/bias", "shape": [32], "dtype": "float32"}, {"name": "weight_normalization_60/initialized", "shape": [], "dtype": "bool"}, {"name": "weight_normalization_61/g", "shape": [192], "dtype": "float32"}, {"name": "weight_normalization_61/kernel", "shape": [1, 1, 32, 192], "dtype": "float32"}, {"name": "weight_normalization_61/bias", "shape": [192], "dtype": "float32"}, {"name": "weight_normalization_61/initialized", "shape": [], "dtype": "bool"}, {"name": "weight_normalization_62/g", "shape": [25], "dtype": "float32"}, {"name": "weight_normalization_62/kernel", "shape": [1, 1, 192, 25], "dtype": "float32"}, {"name": "weight_normalization_62/bias", "shape": [25], "dtype": "float32"}, {"name": "weight_normalization_62/initialized", "shape": [], "dtype": "bool"}, {"name": "weight_normalization_63/g", "shape": [32], "dtype": "float32"}, {"name": "weight_normalization_63/kernel", "shape": [3, 3, 25, 32], "dtype": "float32"}, {"name": "weight_normalization_63/bias", "shape": [32], "dtype": "float32"}, {"name": "weight_normalization_63/initialized", "shape": [], "dtype": "bool"}, {"name": "weight_normalization_64/g", "shape": [192], "dtype": "float32"}, {"name": "weight_normalization_64/kernel", "shape": [1, 1, 32, 192], "dtype": "float32"}, {"name": "weight_normalization_64/bias", "shape": [192], "dtype": "float32"}, {"name": "weight_normalization_64/initialized", "shape": [], "dtype": "bool"}, {"name": "weight_normalization_65/g", "shape": [25], "dtype": "float32"}, {"name": "weight_normalization_65/kernel", "shape": [1, 1, 192, 25], "dtype": "float32"}, {"name": "weight_normalization_65/bias", "shape": [25], "dtype": "float32"}, {"name": "weight_normalization_65/initialized", "shape": [], "dtype": "bool"}, {"name": "weight_normalization_66/g", "shape": [32], "dtype": "float32"}, {"name": "weight_normalization_66/kernel", "shape": [3, 3, 25, 32], "dtype": "float32"}, {"name": "weight_normalization_66/bias", "shape": [32], "dtype": "float32"}, {"name": "weight_normalization_66/initialized", "shape": [], "dtype": "bool"}, {"name": "weight_normalization_67/g", "shape": [192], "dtype": "float32"}, {"name": "weight_normalization_67/kernel", "shape": [1, 1, 32, 192], "dtype": "float32"}, {"name": "weight_normalization_67/bias", "shape": [192], "dtype": "float32"}, {"name": "weight_normalization_67/initialized", "shape": [], "dtype": "bool"}, {"name": "weight_normalization_68/g", "shape": [25], "dtype": "float32"}, {"name": "weight_normalization_68/kernel", "shape": [1, 1, 192, 25], "dtype": "float32"}, {"name": "weight_normalization_68/bias", "shape": [25], "dtype": "float32"}, {"name": "weight_normalization_68/initialized", "shape": [], "dtype": "bool"}, {"name": "weight_normalization_69/g", "shape": [32], "dtype": "float32"}, {"name": "weight_normalization_69/kernel", "shape": [3, 3, 25, 32], "dtype": "float32"}, {"name": "weight_normalization_69/bias", "shape": [32], "dtype": "float32"}, {"name": "weight_normalization_69/initialized", "shape": [], "dtype": "bool"}, {"name": "weight_normalization_7/g", "shape": [192], "dtype": "float32"}, {"name": "weight_normalization_7/kernel", "shape": [1, 1, 32, 192], "dtype": "float32"}, {"name": "weight_normalization_7/bias", "shape": [192], "dtype": "float32"}, {"name": "weight_normalization_7/initialized", "shape": [], "dtype": "bool"}, {"name": "weight_normalization_70/g", "shape": [192], "dtype": "float32"}, {"name": "weight_normalization_70/kernel", "shape": [1, 1, 32, 192], "dtype": "float32"}, {"name": "weight_normalization_70/bias", "shape": [192], "dtype": "float32"}, {"name": "weight_normalization_70/initialized", "shape": [], "dtype": "bool"}, {"name": "weight_normalization_71/g", "shape": [25], "dtype": "float32"}, {"name": "weight_normalization_71/kernel", "shape": [1, 1, 192, 25], "dtype": "float32"}, {"name": "weight_normalization_71/bias", "shape": [25], "dtype": "float32"}, {"name": "weight_normalization_71/initialized", "shape": [], "dtype": "bool"}, {"name": "weight_normalization_72/g", "shape": [32], "dtype": "float32"}, {"name": "weight_normalization_72/kernel", "shape": [3, 3, 25, 32], "dtype": "float32"}, {"name": "weight_normalization_72/bias", "shape": [32], "dtype": "float32"}, {"name": "weight_normalization_72/initialized", "shape": [], "dtype": "bool"}, {"name": "weight_normalization_73/g", "shape": [192], "dtype": "float32"}, {"name": "weight_normalization_73/kernel", "shape": [1, 1, 32, 192], "dtype": "float32"}, {"name": "weight_normalization_73/bias", "shape": [192], "dtype": "float32"}, {"name": "weight_normalization_73/initialized", "shape": [], "dtype": "bool"}, {"name": "weight_normalization_74/g", "shape": [25], "dtype": "float32"}, {"name": "weight_normalization_74/kernel", "shape": [1, 1, 192, 25], "dtype": "float32"}, {"name": "weight_normalization_74/bias", "shape": [25], "dtype": "float32"}, {"name": "weight_normalization_74/initialized", "shape": [], "dtype": "bool"}, {"name": "weight_normalization_75/g", "shape": [32], "dtype": "float32"}, {"name": "weight_normalization_75/kernel", "shape": [3, 3, 25, 32], "dtype": "float32"}, {"name": "weight_normalization_75/bias", "shape": [32], "dtype": "float32"}, {"name": "weight_normalization_75/initialized", "shape": [], "dtype": "bool"}, {"name": "weight_normalization_76/g", "shape": [192], "dtype": "float32"}, {"name": "weight_normalization_76/kernel", "shape": [1, 1, 32, 192], "dtype": "float32"}, {"name": "weight_normalization_76/bias", "shape": [192], "dtype": "float32"}, {"name": "weight_normalization_76/initialized", "shape": [], "dtype": "bool"}, {"name": "weight_normalization_77/g", "shape": [25], "dtype": "float32"}, {"name": "weight_normalization_77/kernel", "shape": [1, 1, 192, 25], "dtype": "float32"}, {"name": "weight_normalization_77/bias", "shape": [25], "dtype": "float32"}, {"name": "weight_normalization_77/initialized", "shape": [], "dtype": "bool"}, {"name": "weight_normalization_78/g", "shape": [32], "dtype": "float32"}, {"name": "weight_normalization_78/kernel", "shape": [3, 3, 25, 32], "dtype": "float32"}, {"name": "weight_normalization_78/bias", "shape": [32], "dtype": "float32"}, {"name": "weight_normalization_78/initialized", "shape": [], "dtype": "bool"}, {"name": "weight_normalization_79/g", "shape": [192], "dtype": "float32"}, {"name": "weight_normalization_79/kernel", "shape": [1, 1, 32, 192], "dtype": "float32"}, {"name": "weight_normalization_79/bias", "shape": [192], "dtype": "float32"}, {"name": "weight_normalization_79/initialized", "shape": [], "dtype": "bool"}, {"name": "weight_normalization_8/g", "shape": [25], "dtype": "float32"}, {"name": "weight_normalization_8/kernel", "shape": [1, 1, 192, 25], "dtype": "float32"}, {"name": "weight_normalization_8/bias", "shape": [25], "dtype": "float32"}, {"name": "weight_normalization_8/initialized", "shape": [], "dtype": "bool"}, {"name": "weight_normalization_80/g", "shape": [25], "dtype": "float32"}, {"name": "weight_normalization_80/kernel", "shape": [1, 1, 192, 25], "dtype": "float32"}, {"name": "weight_normalization_80/bias", "shape": [25], "dtype": "float32"}, {"name": "weight_normalization_80/initialized", "shape": [], "dtype": "bool"}, {"name": "weight_normalization_81/g", "shape": [32], "dtype": "float32"}, {"name": "weight_normalization_81/kernel", "shape": [3, 3, 25, 32], "dtype": "float32"}, {"name": "weight_normalization_81/bias", "shape": [32], "dtype": "float32"}, {"name": "weight_normalization_81/initialized", "shape": [], "dtype": "bool"}, {"name": "weight_normalization_82/g", "shape": [192], "dtype": "float32"}, {"name": "weight_normalization_82/kernel", "shape": [1, 1, 32, 192], "dtype": "float32"}, {"name": "weight_normalization_82/bias", "shape": [192], "dtype": "float32"}, {"name": "weight_normalization_82/initialized", "shape": [], "dtype": "bool"}, {"name": "weight_normalization_83/g", "shape": [25], "dtype": "float32"}, {"name": "weight_normalization_83/kernel", "shape": [1, 1, 192, 25], "dtype": "float32"}, {"name": "weight_normalization_83/bias", "shape": [25], "dtype": "float32"}, {"name": "weight_normalization_83/initialized", "shape": [], "dtype": "bool"}, {"name": "weight_normalization_84/g", "shape": [32], "dtype": "float32"}, {"name": "weight_normalization_84/kernel", "shape": [3, 3, 25, 32], "dtype": "float32"}, {"name": "weight_normalization_84/bias", "shape": [32], "dtype": "float32"}, {"name": "weight_normalization_84/initialized", "shape": [], "dtype": "bool"}, {"name": "weight_normalization_85/g", "shape": [192], "dtype": "float32"}, {"name": "weight_normalization_85/kernel", "shape": [1, 1, 32, 192], "dtype": "float32"}, {"name": "weight_normalization_85/bias", "shape": [192], "dtype": "float32"}, {"name": "weight_normalization_85/initialized", "shape": [], "dtype": "bool"}, {"name": "weight_normalization_86/g", "shape": [25], "dtype": "float32"}, {"name": "weight_normalization_86/kernel", "shape": [1, 1, 192, 25], "dtype": "float32"}, {"name": "weight_normalization_86/bias", "shape": [25], "dtype": "float32"}, {"name": "weight_normalization_86/initialized", "shape": [], "dtype": "bool"}, {"name": "weight_normalization_87/g", "shape": [32], "dtype": "float32"}, {"name": "weight_normalization_87/kernel", "shape": [3, 3, 25, 32], "dtype": "float32"}, {"name": "weight_normalization_87/bias", "shape": [32], "dtype": "float32"}, {"name": "weight_normalization_87/initialized", "shape": [], "dtype": "bool"}, {"name": "weight_normalization_88/g", "shape": [192], "dtype": "float32"}, {"name": "weight_normalization_88/kernel", "shape": [1, 1, 32, 192], "dtype": "float32"}, {"name": "weight_normalization_88/bias", "shape": [192], "dtype": "float32"}, {"name": "weight_normalization_88/initialized", "shape": [], "dtype": "bool"}, {"name": "weight_normalization_89/g", "shape": [25], "dtype": "float32"}, {"name": "weight_normalization_89/kernel", "shape": [1, 1, 192, 25], "dtype": "float32"}, {"name": "weight_normalization_89/bias", "shape": [25], "dtype": "float32"}, {"name": "weight_normalization_89/initialized", "shape": [], "dtype": "bool"}, {"name": "weight_normalization_9/g", "shape": [32], "dtype": "float32"}, {"name": "weight_normalization_9/kernel", "shape": [3, 3, 25, 32], "dtype": "float32"}, {"name": "weight_normalization_9/bias", "shape": [32], "dtype": "float32"}, {"name": "weight_normalization_9/initialized", "shape": [], "dtype": "bool"}, {"name": "weight_normalization_90/g", "shape": [32], "dtype": "float32"}, {"name": "weight_normalization_90/kernel", "shape": [3, 3, 25, 32], "dtype": "float32"}, {"name": "weight_normalization_90/bias", "shape": [32], "dtype": "float32"}, {"name": "weight_normalization_90/initialized", "shape": [], "dtype": "bool"}, {"name": "weight_normalization_91/g", "shape": [192], "dtype": "float32"}, {"name": "weight_normalization_91/kernel", "shape": [1, 1, 32, 192], "dtype": "float32"}, {"name": "weight_normalization_91/bias", "shape": [192], "dtype": "float32"}, {"name": "weight_normalization_91/initialized", "shape": [], "dtype": "bool"}, {"name": "weight_normalization_92/g", "shape": [25], "dtype": "float32"}, {"name": "weight_normalization_92/kernel", "shape": [1, 1, 192, 25], "dtype": "float32"}, {"name": "weight_normalization_92/bias", "shape": [25], "dtype": "float32"}, {"name": "weight_normalization_92/initialized", "shape": [], "dtype": "bool"}, {"name": "weight_normalization_93/g", "shape": [32], "dtype": "float32"}, {"name": "weight_normalization_93/kernel", "shape": [3, 3, 25, 32], "dtype": "float32"}, {"name": "weight_normalization_93/bias", "shape": [32], "dtype": "float32"}, {"name": "weight_normalization_93/initialized", "shape": [], "dtype": "bool"}, {"name": "weight_normalization_94/g", "shape": [192], "dtype": "float32"}, {"name": "weight_normalization_94/kernel", "shape": [1, 1, 32, 192], "dtype": "float32"}, {"name": "weight_normalization_94/bias", "shape": [192], "dtype": "float32"}, {"name": "weight_normalization_94/initialized", "shape": [], "dtype": "bool"}, {"name": "weight_normalization_95/g", "shape": [25], "dtype": "float32"}, {"name": "weight_normalization_95/kernel", "shape": [1, 1, 192, 25], "dtype": "float32"}, {"name": "weight_normalization_95/bias", "shape": [25], "dtype": "float32"}, {"name": "weight_normalization_95/initialized", "shape": [], "dtype": "bool"}, {"name": "weight_normalization_96/g", "shape": [32], "dtype": "float32"}, {"name": "weight_normalization_96/kernel", "shape": [3, 3, 25, 32], "dtype": "float32"}, {"name": "weight_normalization_96/bias", "shape": [32], "dtype": "float32"}, {"name": "weight_normalization_96/initialized", "shape": [], "dtype": "bool"}, {"name": "weight_normalization_97/g", "shape": [48], "dtype": "float32"}, {"name": "weight_normalization_97/kernel", "shape": [3, 3, 32, 48], "dtype": "float32"}, {"name": "weight_normalization_97/bias", "shape": [48], "dtype": "float32"}, {"name": "weight_normalization_97/initialized", "shape": [], "dtype": "bool"}, {"name": "weight_normalization_98/g", "shape": [48], "dtype": "float32"}, {"name": "weight_normalization_98/kernel", "shape": [5, 5, 3, 48], "dtype": "float32"}, {"name": "weight_normalization_98/bias", "shape": [48], "dtype": "float32"}, {"name": "weight_normalization_98/initialized", "shape": [], "dtype": "bool"}]}]}